[2021-06-28 11:00:16,883]-[train.py line:149]:Training start,img size is: 416,batchsize is: 1,work number is 0 
[2021-06-28 11:00:16,883]-[train.py line:152]:Build_Model(
  (_Build_Model__yolov4): YOLOv4(
    (backbone): CSPDarknet53(
      (stem_conv): Convolutional(
        (_Convolutional__conv): Conv2d(3, 32, kernel_size=(3, 3), stride=(1, 1), padding=(1, 1), bias=False)
        (_Convolutional__norm): BatchNorm2d(32, eps=1e-05, momentum=0.1, affine=True, track_running_stats=True)
        (_Convolutional__activate): Mish()
      )
      (stages): ModuleList(
        (0): CSPFirstStage(
          (downsample_conv): Convolutional(
            (_Convolutional__conv): Conv2d(32, 64, kernel_size=(3, 3), stride=(2, 2), padding=(1, 1), bias=False)
            (_Convolutional__norm): BatchNorm2d(64, eps=1e-05, momentum=0.1, affine=True, track_running_stats=True)
            (_Convolutional__activate): Mish()
          )
          (split_conv0): Convolutional(
            (_Convolutional__conv): Conv2d(64, 64, kernel_size=(1, 1), stride=(1, 1), bias=False)
            (_Convolutional__norm): BatchNorm2d(64, eps=1e-05, momentum=0.1, affine=True, track_running_stats=True)
            (_Convolutional__activate): Mish()
          )
          (split_conv1): Convolutional(
            (_Convolutional__conv): Conv2d(64, 64, kernel_size=(1, 1), stride=(1, 1), bias=False)
            (_Convolutional__norm): BatchNorm2d(64, eps=1e-05, momentum=0.1, affine=True, track_running_stats=True)
            (_Convolutional__activate): Mish()
          )
          (blocks_conv): Sequential(
            (0): CSPBlock(
              (block): Sequential(
                (0): Convolutional(
                  (_Convolutional__conv): Conv2d(64, 32, kernel_size=(1, 1), stride=(1, 1), bias=False)
                  (_Convolutional__norm): BatchNorm2d(32, eps=1e-05, momentum=0.1, affine=True, track_running_stats=True)
                  (_Convolutional__activate): Mish()
                )
                (1): Convolutional(
                  (_Convolutional__conv): Conv2d(32, 64, kernel_size=(3, 3), stride=(1, 1), padding=(1, 1), bias=False)
                  (_Convolutional__norm): BatchNorm2d(64, eps=1e-05, momentum=0.1, affine=True, track_running_stats=True)
                  (_Convolutional__activate): Mish()
                )
              )
              (activation): Identity()
              (attention_module): ShuffleAttention(
                (avg_pool): AdaptiveAvgPool2d(output_size=1)
                (gn): GroupNorm(4, 4, eps=1e-05, affine=True)
                (sigmoid): Sigmoid()
              )
            )
            (1): Convolutional(
              (_Convolutional__conv): Conv2d(64, 64, kernel_size=(1, 1), stride=(1, 1), bias=False)
              (_Convolutional__norm): BatchNorm2d(64, eps=1e-05, momentum=0.1, affine=True, track_running_stats=True)
              (_Convolutional__activate): Mish()
            )
          )
          (concat_conv): Convolutional(
            (_Convolutional__conv): Conv2d(128, 64, kernel_size=(1, 1), stride=(1, 1), bias=False)
            (_Convolutional__norm): BatchNorm2d(64, eps=1e-05, momentum=0.1, affine=True, track_running_stats=True)
            (_Convolutional__activate): Mish()
          )
        )
        (1): CSPStage(
          (downsample_conv): Convolutional(
            (_Convolutional__conv): Conv2d(64, 128, kernel_size=(3, 3), stride=(2, 2), padding=(1, 1), bias=False)
            (_Convolutional__norm): BatchNorm2d(128, eps=1e-05, momentum=0.1, affine=True, track_running_stats=True)
            (_Convolutional__activate): Mish()
          )
          (split_conv0): Convolutional(
            (_Convolutional__conv): Conv2d(128, 64, kernel_size=(1, 1), stride=(1, 1), bias=False)
            (_Convolutional__norm): BatchNorm2d(64, eps=1e-05, momentum=0.1, affine=True, track_running_stats=True)
            (_Convolutional__activate): Mish()
          )
          (split_conv1): Convolutional(
            (_Convolutional__conv): Conv2d(128, 64, kernel_size=(1, 1), stride=(1, 1), bias=False)
            (_Convolutional__norm): BatchNorm2d(64, eps=1e-05, momentum=0.1, affine=True, track_running_stats=True)
            (_Convolutional__activate): Mish()
          )
          (blocks_conv): Sequential(
            (0): CSPBlock(
              (block): Sequential(
                (0): Convolutional(
                  (_Convolutional__conv): Conv2d(64, 64, kernel_size=(1, 1), stride=(1, 1), bias=False)
                  (_Convolutional__norm): BatchNorm2d(64, eps=1e-05, momentum=0.1, affine=True, track_running_stats=True)
                  (_Convolutional__activate): Mish()
                )
                (1): Convolutional(
                  (_Convolutional__conv): Conv2d(64, 64, kernel_size=(3, 3), stride=(1, 1), padding=(1, 1), bias=False)
                  (_Convolutional__norm): BatchNorm2d(64, eps=1e-05, momentum=0.1, affine=True, track_running_stats=True)
                  (_Convolutional__activate): Mish()
                )
              )
              (activation): Identity()
              (attention_module): ShuffleAttention(
                (avg_pool): AdaptiveAvgPool2d(output_size=1)
                (gn): GroupNorm(4, 4, eps=1e-05, affine=True)
                (sigmoid): Sigmoid()
              )
            )
            (1): CSPBlock(
              (block): Sequential(
                (0): Convolutional(
                  (_Convolutional__conv): Conv2d(64, 64, kernel_size=(1, 1), stride=(1, 1), bias=False)
                  (_Convolutional__norm): BatchNorm2d(64, eps=1e-05, momentum=0.1, affine=True, track_running_stats=True)
                  (_Convolutional__activate): Mish()
                )
                (1): Convolutional(
                  (_Convolutional__conv): Conv2d(64, 64, kernel_size=(3, 3), stride=(1, 1), padding=(1, 1), bias=False)
                  (_Convolutional__norm): BatchNorm2d(64, eps=1e-05, momentum=0.1, affine=True, track_running_stats=True)
                  (_Convolutional__activate): Mish()
                )
              )
              (activation): Identity()
              (attention_module): ShuffleAttention(
                (avg_pool): AdaptiveAvgPool2d(output_size=1)
                (gn): GroupNorm(4, 4, eps=1e-05, affine=True)
                (sigmoid): Sigmoid()
              )
            )
            (2): Convolutional(
              (_Convolutional__conv): Conv2d(64, 64, kernel_size=(1, 1), stride=(1, 1), bias=False)
              (_Convolutional__norm): BatchNorm2d(64, eps=1e-05, momentum=0.1, affine=True, track_running_stats=True)
              (_Convolutional__activate): Mish()
            )
          )
          (concat_conv): Convolutional(
            (_Convolutional__conv): Conv2d(128, 128, kernel_size=(1, 1), stride=(1, 1), bias=False)
            (_Convolutional__norm): BatchNorm2d(128, eps=1e-05, momentum=0.1, affine=True, track_running_stats=True)
            (_Convolutional__activate): Mish()
          )
        )
        (2): CSPStage(
          (downsample_conv): Convolutional(
            (_Convolutional__conv): Conv2d(128, 256, kernel_size=(3, 3), stride=(2, 2), padding=(1, 1), bias=False)
            (_Convolutional__norm): BatchNorm2d(256, eps=1e-05, momentum=0.1, affine=True, track_running_stats=True)
            (_Convolutional__activate): Mish()
          )
          (split_conv0): Convolutional(
            (_Convolutional__conv): Conv2d(256, 128, kernel_size=(1, 1), stride=(1, 1), bias=False)
            (_Convolutional__norm): BatchNorm2d(128, eps=1e-05, momentum=0.1, affine=True, track_running_stats=True)
            (_Convolutional__activate): Mish()
          )
          (split_conv1): Convolutional(
            (_Convolutional__conv): Conv2d(256, 128, kernel_size=(1, 1), stride=(1, 1), bias=False)
            (_Convolutional__norm): BatchNorm2d(128, eps=1e-05, momentum=0.1, affine=True, track_running_stats=True)
            (_Convolutional__activate): Mish()
          )
          (blocks_conv): Sequential(
            (0): CSPBlock(
              (block): Sequential(
                (0): Convolutional(
                  (_Convolutional__conv): Conv2d(128, 128, kernel_size=(1, 1), stride=(1, 1), bias=False)
                  (_Convolutional__norm): BatchNorm2d(128, eps=1e-05, momentum=0.1, affine=True, track_running_stats=True)
                  (_Convolutional__activate): Mish()
                )
                (1): Convolutional(
                  (_Convolutional__conv): Conv2d(128, 128, kernel_size=(3, 3), stride=(1, 1), padding=(1, 1), bias=False)
                  (_Convolutional__norm): BatchNorm2d(128, eps=1e-05, momentum=0.1, affine=True, track_running_stats=True)
                  (_Convolutional__activate): Mish()
                )
              )
              (activation): Identity()
              (attention_module): ShuffleAttention(
                (avg_pool): AdaptiveAvgPool2d(output_size=1)
                (gn): GroupNorm(8, 8, eps=1e-05, affine=True)
                (sigmoid): Sigmoid()
              )
            )
            (1): CSPBlock(
              (block): Sequential(
                (0): Convolutional(
                  (_Convolutional__conv): Conv2d(128, 128, kernel_size=(1, 1), stride=(1, 1), bias=False)
                  (_Convolutional__norm): BatchNorm2d(128, eps=1e-05, momentum=0.1, affine=True, track_running_stats=True)
                  (_Convolutional__activate): Mish()
                )
                (1): Convolutional(
                  (_Convolutional__conv): Conv2d(128, 128, kernel_size=(3, 3), stride=(1, 1), padding=(1, 1), bias=False)
                  (_Convolutional__norm): BatchNorm2d(128, eps=1e-05, momentum=0.1, affine=True, track_running_stats=True)
                  (_Convolutional__activate): Mish()
                )
              )
              (activation): Identity()
              (attention_module): ShuffleAttention(
                (avg_pool): AdaptiveAvgPool2d(output_size=1)
                (gn): GroupNorm(8, 8, eps=1e-05, affine=True)
                (sigmoid): Sigmoid()
              )
            )
            (2): CSPBlock(
              (block): Sequential(
                (0): Convolutional(
                  (_Convolutional__conv): Conv2d(128, 128, kernel_size=(1, 1), stride=(1, 1), bias=False)
                  (_Convolutional__norm): BatchNorm2d(128, eps=1e-05, momentum=0.1, affine=True, track_running_stats=True)
                  (_Convolutional__activate): Mish()
                )
                (1): Convolutional(
                  (_Convolutional__conv): Conv2d(128, 128, kernel_size=(3, 3), stride=(1, 1), padding=(1, 1), bias=False)
                  (_Convolutional__norm): BatchNorm2d(128, eps=1e-05, momentum=0.1, affine=True, track_running_stats=True)
                  (_Convolutional__activate): Mish()
                )
              )
              (activation): Identity()
              (attention_module): ShuffleAttention(
                (avg_pool): AdaptiveAvgPool2d(output_size=1)
                (gn): GroupNorm(8, 8, eps=1e-05, affine=True)
                (sigmoid): Sigmoid()
              )
            )
            (3): CSPBlock(
              (block): Sequential(
                (0): Convolutional(
                  (_Convolutional__conv): Conv2d(128, 128, kernel_size=(1, 1), stride=(1, 1), bias=False)
                  (_Convolutional__norm): BatchNorm2d(128, eps=1e-05, momentum=0.1, affine=True, track_running_stats=True)
                  (_Convolutional__activate): Mish()
                )
                (1): Convolutional(
                  (_Convolutional__conv): Conv2d(128, 128, kernel_size=(3, 3), stride=(1, 1), padding=(1, 1), bias=False)
                  (_Convolutional__norm): BatchNorm2d(128, eps=1e-05, momentum=0.1, affine=True, track_running_stats=True)
                  (_Convolutional__activate): Mish()
                )
              )
              (activation): Identity()
              (attention_module): ShuffleAttention(
                (avg_pool): AdaptiveAvgPool2d(output_size=1)
                (gn): GroupNorm(8, 8, eps=1e-05, affine=True)
                (sigmoid): Sigmoid()
              )
            )
            (4): CSPBlock(
              (block): Sequential(
                (0): Convolutional(
                  (_Convolutional__conv): Conv2d(128, 128, kernel_size=(1, 1), stride=(1, 1), bias=False)
                  (_Convolutional__norm): BatchNorm2d(128, eps=1e-05, momentum=0.1, affine=True, track_running_stats=True)
                  (_Convolutional__activate): Mish()
                )
                (1): Convolutional(
                  (_Convolutional__conv): Conv2d(128, 128, kernel_size=(3, 3), stride=(1, 1), padding=(1, 1), bias=False)
                  (_Convolutional__norm): BatchNorm2d(128, eps=1e-05, momentum=0.1, affine=True, track_running_stats=True)
                  (_Convolutional__activate): Mish()
                )
              )
              (activation): Identity()
              (attention_module): ShuffleAttention(
                (avg_pool): AdaptiveAvgPool2d(output_size=1)
                (gn): GroupNorm(8, 8, eps=1e-05, affine=True)
                (sigmoid): Sigmoid()
              )
            )
            (5): CSPBlock(
              (block): Sequential(
                (0): Convolutional(
                  (_Convolutional__conv): Conv2d(128, 128, kernel_size=(1, 1), stride=(1, 1), bias=False)
                  (_Convolutional__norm): BatchNorm2d(128, eps=1e-05, momentum=0.1, affine=True, track_running_stats=True)
                  (_Convolutional__activate): Mish()
                )
                (1): Convolutional(
                  (_Convolutional__conv): Conv2d(128, 128, kernel_size=(3, 3), stride=(1, 1), padding=(1, 1), bias=False)
                  (_Convolutional__norm): BatchNorm2d(128, eps=1e-05, momentum=0.1, affine=True, track_running_stats=True)
                  (_Convolutional__activate): Mish()
                )
              )
              (activation): Identity()
              (attention_module): ShuffleAttention(
                (avg_pool): AdaptiveAvgPool2d(output_size=1)
                (gn): GroupNorm(8, 8, eps=1e-05, affine=True)
                (sigmoid): Sigmoid()
              )
            )
            (6): CSPBlock(
              (block): Sequential(
                (0): Convolutional(
                  (_Convolutional__conv): Conv2d(128, 128, kernel_size=(1, 1), stride=(1, 1), bias=False)
                  (_Convolutional__norm): BatchNorm2d(128, eps=1e-05, momentum=0.1, affine=True, track_running_stats=True)
                  (_Convolutional__activate): Mish()
                )
                (1): Convolutional(
                  (_Convolutional__conv): Conv2d(128, 128, kernel_size=(3, 3), stride=(1, 1), padding=(1, 1), bias=False)
                  (_Convolutional__norm): BatchNorm2d(128, eps=1e-05, momentum=0.1, affine=True, track_running_stats=True)
                  (_Convolutional__activate): Mish()
                )
              )
              (activation): Identity()
              (attention_module): ShuffleAttention(
                (avg_pool): AdaptiveAvgPool2d(output_size=1)
                (gn): GroupNorm(8, 8, eps=1e-05, affine=True)
                (sigmoid): Sigmoid()
              )
            )
            (7): CSPBlock(
              (block): Sequential(
                (0): Convolutional(
                  (_Convolutional__conv): Conv2d(128, 128, kernel_size=(1, 1), stride=(1, 1), bias=False)
                  (_Convolutional__norm): BatchNorm2d(128, eps=1e-05, momentum=0.1, affine=True, track_running_stats=True)
                  (_Convolutional__activate): Mish()
                )
                (1): Convolutional(
                  (_Convolutional__conv): Conv2d(128, 128, kernel_size=(3, 3), stride=(1, 1), padding=(1, 1), bias=False)
                  (_Convolutional__norm): BatchNorm2d(128, eps=1e-05, momentum=0.1, affine=True, track_running_stats=True)
                  (_Convolutional__activate): Mish()
                )
              )
              (activation): Identity()
              (attention_module): ShuffleAttention(
                (avg_pool): AdaptiveAvgPool2d(output_size=1)
                (gn): GroupNorm(8, 8, eps=1e-05, affine=True)
                (sigmoid): Sigmoid()
              )
            )
            (8): Convolutional(
              (_Convolutional__conv): Conv2d(128, 128, kernel_size=(1, 1), stride=(1, 1), bias=False)
              (_Convolutional__norm): BatchNorm2d(128, eps=1e-05, momentum=0.1, affine=True, track_running_stats=True)
              (_Convolutional__activate): Mish()
            )
          )
          (concat_conv): Convolutional(
            (_Convolutional__conv): Conv2d(256, 256, kernel_size=(1, 1), stride=(1, 1), bias=False)
            (_Convolutional__norm): BatchNorm2d(256, eps=1e-05, momentum=0.1, affine=True, track_running_stats=True)
            (_Convolutional__activate): Mish()
          )
        )
        (3): CSPStage(
          (downsample_conv): Convolutional(
            (_Convolutional__conv): Conv2d(256, 512, kernel_size=(3, 3), stride=(2, 2), padding=(1, 1), bias=False)
            (_Convolutional__norm): BatchNorm2d(512, eps=1e-05, momentum=0.1, affine=True, track_running_stats=True)
            (_Convolutional__activate): Mish()
          )
          (split_conv0): Convolutional(
            (_Convolutional__conv): Conv2d(512, 256, kernel_size=(1, 1), stride=(1, 1), bias=False)
            (_Convolutional__norm): BatchNorm2d(256, eps=1e-05, momentum=0.1, affine=True, track_running_stats=True)
            (_Convolutional__activate): Mish()
          )
          (split_conv1): Convolutional(
            (_Convolutional__conv): Conv2d(512, 256, kernel_size=(1, 1), stride=(1, 1), bias=False)
            (_Convolutional__norm): BatchNorm2d(256, eps=1e-05, momentum=0.1, affine=True, track_running_stats=True)
            (_Convolutional__activate): Mish()
          )
          (blocks_conv): Sequential(
            (0): CSPBlock(
              (block): Sequential(
                (0): Convolutional(
                  (_Convolutional__conv): Conv2d(256, 256, kernel_size=(1, 1), stride=(1, 1), bias=False)
                  (_Convolutional__norm): BatchNorm2d(256, eps=1e-05, momentum=0.1, affine=True, track_running_stats=True)
                  (_Convolutional__activate): Mish()
                )
                (1): Convolutional(
                  (_Convolutional__conv): Conv2d(256, 256, kernel_size=(3, 3), stride=(1, 1), padding=(1, 1), bias=False)
                  (_Convolutional__norm): BatchNorm2d(256, eps=1e-05, momentum=0.1, affine=True, track_running_stats=True)
                  (_Convolutional__activate): Mish()
                )
              )
              (activation): Identity()
              (attention_module): ShuffleAttention(
                (avg_pool): AdaptiveAvgPool2d(output_size=1)
                (gn): GroupNorm(16, 16, eps=1e-05, affine=True)
                (sigmoid): Sigmoid()
              )
            )
            (1): CSPBlock(
              (block): Sequential(
                (0): Convolutional(
                  (_Convolutional__conv): Conv2d(256, 256, kernel_size=(1, 1), stride=(1, 1), bias=False)
                  (_Convolutional__norm): BatchNorm2d(256, eps=1e-05, momentum=0.1, affine=True, track_running_stats=True)
                  (_Convolutional__activate): Mish()
                )
                (1): Convolutional(
                  (_Convolutional__conv): Conv2d(256, 256, kernel_size=(3, 3), stride=(1, 1), padding=(1, 1), bias=False)
                  (_Convolutional__norm): BatchNorm2d(256, eps=1e-05, momentum=0.1, affine=True, track_running_stats=True)
                  (_Convolutional__activate): Mish()
                )
              )
              (activation): Identity()
              (attention_module): ShuffleAttention(
                (avg_pool): AdaptiveAvgPool2d(output_size=1)
                (gn): GroupNorm(16, 16, eps=1e-05, affine=True)
                (sigmoid): Sigmoid()
              )
            )
            (2): CSPBlock(
              (block): Sequential(
                (0): Convolutional(
                  (_Convolutional__conv): Conv2d(256, 256, kernel_size=(1, 1), stride=(1, 1), bias=False)
                  (_Convolutional__norm): BatchNorm2d(256, eps=1e-05, momentum=0.1, affine=True, track_running_stats=True)
                  (_Convolutional__activate): Mish()
                )
                (1): Convolutional(
                  (_Convolutional__conv): Conv2d(256, 256, kernel_size=(3, 3), stride=(1, 1), padding=(1, 1), bias=False)
                  (_Convolutional__norm): BatchNorm2d(256, eps=1e-05, momentum=0.1, affine=True, track_running_stats=True)
                  (_Convolutional__activate): Mish()
                )
              )
              (activation): Identity()
              (attention_module): ShuffleAttention(
                (avg_pool): AdaptiveAvgPool2d(output_size=1)
                (gn): GroupNorm(16, 16, eps=1e-05, affine=True)
                (sigmoid): Sigmoid()
              )
            )
            (3): CSPBlock(
              (block): Sequential(
                (0): Convolutional(
                  (_Convolutional__conv): Conv2d(256, 256, kernel_size=(1, 1), stride=(1, 1), bias=False)
                  (_Convolutional__norm): BatchNorm2d(256, eps=1e-05, momentum=0.1, affine=True, track_running_stats=True)
                  (_Convolutional__activate): Mish()
                )
                (1): Convolutional(
                  (_Convolutional__conv): Conv2d(256, 256, kernel_size=(3, 3), stride=(1, 1), padding=(1, 1), bias=False)
                  (_Convolutional__norm): BatchNorm2d(256, eps=1e-05, momentum=0.1, affine=True, track_running_stats=True)
                  (_Convolutional__activate): Mish()
                )
              )
              (activation): Identity()
              (attention_module): ShuffleAttention(
                (avg_pool): AdaptiveAvgPool2d(output_size=1)
                (gn): GroupNorm(16, 16, eps=1e-05, affine=True)
                (sigmoid): Sigmoid()
              )
            )
            (4): CSPBlock(
              (block): Sequential(
                (0): Convolutional(
                  (_Convolutional__conv): Conv2d(256, 256, kernel_size=(1, 1), stride=(1, 1), bias=False)
                  (_Convolutional__norm): BatchNorm2d(256, eps=1e-05, momentum=0.1, affine=True, track_running_stats=True)
                  (_Convolutional__activate): Mish()
                )
                (1): Convolutional(
                  (_Convolutional__conv): Conv2d(256, 256, kernel_size=(3, 3), stride=(1, 1), padding=(1, 1), bias=False)
                  (_Convolutional__norm): BatchNorm2d(256, eps=1e-05, momentum=0.1, affine=True, track_running_stats=True)
                  (_Convolutional__activate): Mish()
                )
              )
              (activation): Identity()
              (attention_module): ShuffleAttention(
                (avg_pool): AdaptiveAvgPool2d(output_size=1)
                (gn): GroupNorm(16, 16, eps=1e-05, affine=True)
                (sigmoid): Sigmoid()
              )
            )
            (5): CSPBlock(
              (block): Sequential(
                (0): Convolutional(
                  (_Convolutional__conv): Conv2d(256, 256, kernel_size=(1, 1), stride=(1, 1), bias=False)
                  (_Convolutional__norm): BatchNorm2d(256, eps=1e-05, momentum=0.1, affine=True, track_running_stats=True)
                  (_Convolutional__activate): Mish()
                )
                (1): Convolutional(
                  (_Convolutional__conv): Conv2d(256, 256, kernel_size=(3, 3), stride=(1, 1), padding=(1, 1), bias=False)
                  (_Convolutional__norm): BatchNorm2d(256, eps=1e-05, momentum=0.1, affine=True, track_running_stats=True)
                  (_Convolutional__activate): Mish()
                )
              )
              (activation): Identity()
              (attention_module): ShuffleAttention(
                (avg_pool): AdaptiveAvgPool2d(output_size=1)
                (gn): GroupNorm(16, 16, eps=1e-05, affine=True)
                (sigmoid): Sigmoid()
              )
            )
            (6): CSPBlock(
              (block): Sequential(
                (0): Convolutional(
                  (_Convolutional__conv): Conv2d(256, 256, kernel_size=(1, 1), stride=(1, 1), bias=False)
                  (_Convolutional__norm): BatchNorm2d(256, eps=1e-05, momentum=0.1, affine=True, track_running_stats=True)
                  (_Convolutional__activate): Mish()
                )
                (1): Convolutional(
                  (_Convolutional__conv): Conv2d(256, 256, kernel_size=(3, 3), stride=(1, 1), padding=(1, 1), bias=False)
                  (_Convolutional__norm): BatchNorm2d(256, eps=1e-05, momentum=0.1, affine=True, track_running_stats=True)
                  (_Convolutional__activate): Mish()
                )
              )
              (activation): Identity()
              (attention_module): ShuffleAttention(
                (avg_pool): AdaptiveAvgPool2d(output_size=1)
                (gn): GroupNorm(16, 16, eps=1e-05, affine=True)
                (sigmoid): Sigmoid()
              )
            )
            (7): CSPBlock(
              (block): Sequential(
                (0): Convolutional(
                  (_Convolutional__conv): Conv2d(256, 256, kernel_size=(1, 1), stride=(1, 1), bias=False)
                  (_Convolutional__norm): BatchNorm2d(256, eps=1e-05, momentum=0.1, affine=True, track_running_stats=True)
                  (_Convolutional__activate): Mish()
                )
                (1): Convolutional(
                  (_Convolutional__conv): Conv2d(256, 256, kernel_size=(3, 3), stride=(1, 1), padding=(1, 1), bias=False)
                  (_Convolutional__norm): BatchNorm2d(256, eps=1e-05, momentum=0.1, affine=True, track_running_stats=True)
                  (_Convolutional__activate): Mish()
                )
              )
              (activation): Identity()
              (attention_module): ShuffleAttention(
                (avg_pool): AdaptiveAvgPool2d(output_size=1)
                (gn): GroupNorm(16, 16, eps=1e-05, affine=True)
                (sigmoid): Sigmoid()
              )
            )
            (8): Convolutional(
              (_Convolutional__conv): Conv2d(256, 256, kernel_size=(1, 1), stride=(1, 1), bias=False)
              (_Convolutional__norm): BatchNorm2d(256, eps=1e-05, momentum=0.1, affine=True, track_running_stats=True)
              (_Convolutional__activate): Mish()
            )
          )
          (concat_conv): Convolutional(
            (_Convolutional__conv): Conv2d(512, 512, kernel_size=(1, 1), stride=(1, 1), bias=False)
            (_Convolutional__norm): BatchNorm2d(512, eps=1e-05, momentum=0.1, affine=True, track_running_stats=True)
            (_Convolutional__activate): Mish()
          )
        )
        (4): CSPStage(
          (downsample_conv): Convolutional(
            (_Convolutional__conv): Conv2d(512, 1024, kernel_size=(3, 3), stride=(2, 2), padding=(1, 1), bias=False)
            (_Convolutional__norm): BatchNorm2d(1024, eps=1e-05, momentum=0.1, affine=True, track_running_stats=True)
            (_Convolutional__activate): Mish()
          )
          (split_conv0): Convolutional(
            (_Convolutional__conv): Conv2d(1024, 512, kernel_size=(1, 1), stride=(1, 1), bias=False)
            (_Convolutional__norm): BatchNorm2d(512, eps=1e-05, momentum=0.1, affine=True, track_running_stats=True)
            (_Convolutional__activate): Mish()
          )
          (split_conv1): Convolutional(
            (_Convolutional__conv): Conv2d(1024, 512, kernel_size=(1, 1), stride=(1, 1), bias=False)
            (_Convolutional__norm): BatchNorm2d(512, eps=1e-05, momentum=0.1, affine=True, track_running_stats=True)
            (_Convolutional__activate): Mish()
          )
          (blocks_conv): Sequential(
            (0): CSPBlock(
              (block): Sequential(
                (0): Convolutional(
                  (_Convolutional__conv): Conv2d(512, 512, kernel_size=(1, 1), stride=(1, 1), bias=False)
                  (_Convolutional__norm): BatchNorm2d(512, eps=1e-05, momentum=0.1, affine=True, track_running_stats=True)
                  (_Convolutional__activate): Mish()
                )
                (1): Convolutional(
                  (_Convolutional__conv): Conv2d(512, 512, kernel_size=(3, 3), stride=(1, 1), padding=(1, 1), bias=False)
                  (_Convolutional__norm): BatchNorm2d(512, eps=1e-05, momentum=0.1, affine=True, track_running_stats=True)
                  (_Convolutional__activate): Mish()
                )
              )
              (activation): Identity()
              (attention_module): ShuffleAttention(
                (avg_pool): AdaptiveAvgPool2d(output_size=1)
                (gn): GroupNorm(32, 32, eps=1e-05, affine=True)
                (sigmoid): Sigmoid()
              )
            )
            (1): CSPBlock(
              (block): Sequential(
                (0): Convolutional(
                  (_Convolutional__conv): Conv2d(512, 512, kernel_size=(1, 1), stride=(1, 1), bias=False)
                  (_Convolutional__norm): BatchNorm2d(512, eps=1e-05, momentum=0.1, affine=True, track_running_stats=True)
                  (_Convolutional__activate): Mish()
                )
                (1): Convolutional(
                  (_Convolutional__conv): Conv2d(512, 512, kernel_size=(3, 3), stride=(1, 1), padding=(1, 1), bias=False)
                  (_Convolutional__norm): BatchNorm2d(512, eps=1e-05, momentum=0.1, affine=True, track_running_stats=True)
                  (_Convolutional__activate): Mish()
                )
              )
              (activation): Identity()
              (attention_module): ShuffleAttention(
                (avg_pool): AdaptiveAvgPool2d(output_size=1)
                (gn): GroupNorm(32, 32, eps=1e-05, affine=True)
                (sigmoid): Sigmoid()
              )
            )
            (2): CSPBlock(
              (block): Sequential(
                (0): Convolutional(
                  (_Convolutional__conv): Conv2d(512, 512, kernel_size=(1, 1), stride=(1, 1), bias=False)
                  (_Convolutional__norm): BatchNorm2d(512, eps=1e-05, momentum=0.1, affine=True, track_running_stats=True)
                  (_Convolutional__activate): Mish()
                )
                (1): Convolutional(
                  (_Convolutional__conv): Conv2d(512, 512, kernel_size=(3, 3), stride=(1, 1), padding=(1, 1), bias=False)
                  (_Convolutional__norm): BatchNorm2d(512, eps=1e-05, momentum=0.1, affine=True, track_running_stats=True)
                  (_Convolutional__activate): Mish()
                )
              )
              (activation): Identity()
              (attention_module): ShuffleAttention(
                (avg_pool): AdaptiveAvgPool2d(output_size=1)
                (gn): GroupNorm(32, 32, eps=1e-05, affine=True)
                (sigmoid): Sigmoid()
              )
            )
            (3): CSPBlock(
              (block): Sequential(
                (0): Convolutional(
                  (_Convolutional__conv): Conv2d(512, 512, kernel_size=(1, 1), stride=(1, 1), bias=False)
                  (_Convolutional__norm): BatchNorm2d(512, eps=1e-05, momentum=0.1, affine=True, track_running_stats=True)
                  (_Convolutional__activate): Mish()
                )
                (1): Convolutional(
                  (_Convolutional__conv): Conv2d(512, 512, kernel_size=(3, 3), stride=(1, 1), padding=(1, 1), bias=False)
                  (_Convolutional__norm): BatchNorm2d(512, eps=1e-05, momentum=0.1, affine=True, track_running_stats=True)
                  (_Convolutional__activate): Mish()
                )
              )
              (activation): Identity()
              (attention_module): ShuffleAttention(
                (avg_pool): AdaptiveAvgPool2d(output_size=1)
                (gn): GroupNorm(32, 32, eps=1e-05, affine=True)
                (sigmoid): Sigmoid()
              )
            )
            (4): Convolutional(
              (_Convolutional__conv): Conv2d(512, 512, kernel_size=(1, 1), stride=(1, 1), bias=False)
              (_Convolutional__norm): BatchNorm2d(512, eps=1e-05, momentum=0.1, affine=True, track_running_stats=True)
              (_Convolutional__activate): Mish()
            )
          )
          (concat_conv): Convolutional(
            (_Convolutional__conv): Conv2d(1024, 1024, kernel_size=(1, 1), stride=(1, 1), bias=False)
            (_Convolutional__norm): BatchNorm2d(1024, eps=1e-05, momentum=0.1, affine=True, track_running_stats=True)
            (_Convolutional__activate): Mish()
          )
        )
      )
    )
    (spp): SpatialPyramidPooling(
      (head_conv): Sequential(
        (0): Conv(
          (conv): Sequential(
            (0): Conv2d(1024, 512, kernel_size=(1, 1), stride=(1, 1), bias=False)
            (1): BatchNorm2d(512, eps=1e-05, momentum=0.1, affine=True, track_running_stats=True)
            (2): LeakyReLU(negative_slope=0.01)
          )
        )
        (1): Conv(
          (conv): Sequential(
            (0): Conv2d(512, 1024, kernel_size=(3, 3), stride=(1, 1), padding=(1, 1), bias=False)
            (1): BatchNorm2d(1024, eps=1e-05, momentum=0.1, affine=True, track_running_stats=True)
            (2): LeakyReLU(negative_slope=0.01)
          )
        )
        (2): Conv(
          (conv): Sequential(
            (0): Conv2d(1024, 512, kernel_size=(1, 1), stride=(1, 1), bias=False)
            (1): BatchNorm2d(512, eps=1e-05, momentum=0.1, affine=True, track_running_stats=True)
            (2): LeakyReLU(negative_slope=0.01)
          )
        )
      )
      (maxpools): ModuleList(
        (0): MaxPool2d(kernel_size=5, stride=1, padding=2, dilation=1, ceil_mode=False)
        (1): MaxPool2d(kernel_size=9, stride=1, padding=4, dilation=1, ceil_mode=False)
        (2): MaxPool2d(kernel_size=13, stride=1, padding=6, dilation=1, ceil_mode=False)
      )
    )
    (panet): PANet(
      (feature_transform3): Conv(
        (conv): Sequential(
          (0): Conv2d(256, 128, kernel_size=(1, 1), stride=(1, 1), bias=False)
          (1): BatchNorm2d(128, eps=1e-05, momentum=0.1, affine=True, track_running_stats=True)
          (2): LeakyReLU(negative_slope=0.01)
        )
      )
      (feature_transform4): Conv(
        (conv): Sequential(
          (0): Conv2d(512, 256, kernel_size=(1, 1), stride=(1, 1), bias=False)
          (1): BatchNorm2d(256, eps=1e-05, momentum=0.1, affine=True, track_running_stats=True)
          (2): LeakyReLU(negative_slope=0.01)
        )
      )
      (resample5_4): Upsample(
        (upsample): Sequential(
          (0): Conv(
            (conv): Sequential(
              (0): Conv2d(512, 256, kernel_size=(1, 1), stride=(1, 1), bias=False)
              (1): BatchNorm2d(256, eps=1e-05, momentum=0.1, affine=True, track_running_stats=True)
              (2): LeakyReLU(negative_slope=0.01)
            )
          )
          (1): Upsample(scale_factor=2.0, mode=nearest)
        )
      )
      (resample4_3): Upsample(
        (upsample): Sequential(
          (0): Conv(
            (conv): Sequential(
              (0): Conv2d(256, 128, kernel_size=(1, 1), stride=(1, 1), bias=False)
              (1): BatchNorm2d(128, eps=1e-05, momentum=0.1, affine=True, track_running_stats=True)
              (2): LeakyReLU(negative_slope=0.01)
            )
          )
          (1): Upsample(scale_factor=2.0, mode=nearest)
        )
      )
      (resample3_4): Downsample(
        (downsample): Conv(
          (conv): Sequential(
            (0): Conv2d(128, 256, kernel_size=(3, 3), stride=(2, 2), padding=(1, 1), bias=False)
            (1): BatchNorm2d(256, eps=1e-05, momentum=0.1, affine=True, track_running_stats=True)
            (2): LeakyReLU(negative_slope=0.01)
          )
        )
      )
      (resample4_5): Downsample(
        (downsample): Conv(
          (conv): Sequential(
            (0): Conv2d(256, 512, kernel_size=(3, 3), stride=(2, 2), padding=(1, 1), bias=False)
            (1): BatchNorm2d(512, eps=1e-05, momentum=0.1, affine=True, track_running_stats=True)
            (2): LeakyReLU(negative_slope=0.01)
          )
        )
      )
      (downstream_conv5): Sequential(
        (0): Conv(
          (conv): Sequential(
            (0): Conv2d(2048, 512, kernel_size=(1, 1), stride=(1, 1), bias=False)
            (1): BatchNorm2d(512, eps=1e-05, momentum=0.1, affine=True, track_running_stats=True)
            (2): LeakyReLU(negative_slope=0.01)
          )
        )
        (1): Conv(
          (conv): Sequential(
            (0): Conv2d(512, 1024, kernel_size=(3, 3), stride=(1, 1), padding=(1, 1), bias=False)
            (1): BatchNorm2d(1024, eps=1e-05, momentum=0.1, affine=True, track_running_stats=True)
            (2): LeakyReLU(negative_slope=0.01)
          )
        )
        (2): Conv(
          (conv): Sequential(
            (0): Conv2d(1024, 512, kernel_size=(1, 1), stride=(1, 1), bias=False)
            (1): BatchNorm2d(512, eps=1e-05, momentum=0.1, affine=True, track_running_stats=True)
            (2): LeakyReLU(negative_slope=0.01)
          )
        )
      )
      (downstream_conv4): Sequential(
        (0): Conv(
          (conv): Sequential(
            (0): Conv2d(512, 256, kernel_size=(1, 1), stride=(1, 1), bias=False)
            (1): BatchNorm2d(256, eps=1e-05, momentum=0.1, affine=True, track_running_stats=True)
            (2): LeakyReLU(negative_slope=0.01)
          )
        )
        (1): Conv(
          (conv): Sequential(
            (0): Conv2d(256, 512, kernel_size=(3, 3), stride=(1, 1), padding=(1, 1), bias=False)
            (1): BatchNorm2d(512, eps=1e-05, momentum=0.1, affine=True, track_running_stats=True)
            (2): LeakyReLU(negative_slope=0.01)
          )
        )
        (2): Conv(
          (conv): Sequential(
            (0): Conv2d(512, 256, kernel_size=(1, 1), stride=(1, 1), bias=False)
            (1): BatchNorm2d(256, eps=1e-05, momentum=0.1, affine=True, track_running_stats=True)
            (2): LeakyReLU(negative_slope=0.01)
          )
        )
        (3): Conv(
          (conv): Sequential(
            (0): Conv2d(256, 512, kernel_size=(3, 3), stride=(1, 1), padding=(1, 1), bias=False)
            (1): BatchNorm2d(512, eps=1e-05, momentum=0.1, affine=True, track_running_stats=True)
            (2): LeakyReLU(negative_slope=0.01)
          )
        )
        (4): Conv(
          (conv): Sequential(
            (0): Conv2d(512, 256, kernel_size=(1, 1), stride=(1, 1), bias=False)
            (1): BatchNorm2d(256, eps=1e-05, momentum=0.1, affine=True, track_running_stats=True)
            (2): LeakyReLU(negative_slope=0.01)
          )
        )
      )
      (downstream_conv3): Sequential(
        (0): Conv(
          (conv): Sequential(
            (0): Conv2d(256, 128, kernel_size=(1, 1), stride=(1, 1), bias=False)
            (1): BatchNorm2d(128, eps=1e-05, momentum=0.1, affine=True, track_running_stats=True)
            (2): LeakyReLU(negative_slope=0.01)
          )
        )
        (1): Conv(
          (conv): Sequential(
            (0): Conv2d(128, 256, kernel_size=(3, 3), stride=(1, 1), padding=(1, 1), bias=False)
            (1): BatchNorm2d(256, eps=1e-05, momentum=0.1, affine=True, track_running_stats=True)
            (2): LeakyReLU(negative_slope=0.01)
          )
        )
        (2): Conv(
          (conv): Sequential(
            (0): Conv2d(256, 128, kernel_size=(1, 1), stride=(1, 1), bias=False)
            (1): BatchNorm2d(128, eps=1e-05, momentum=0.1, affine=True, track_running_stats=True)
            (2): LeakyReLU(negative_slope=0.01)
          )
        )
        (3): Conv(
          (conv): Sequential(
            (0): Conv2d(128, 256, kernel_size=(3, 3), stride=(1, 1), padding=(1, 1), bias=False)
            (1): BatchNorm2d(256, eps=1e-05, momentum=0.1, affine=True, track_running_stats=True)
            (2): LeakyReLU(negative_slope=0.01)
          )
        )
        (4): Conv(
          (conv): Sequential(
            (0): Conv2d(256, 128, kernel_size=(1, 1), stride=(1, 1), bias=False)
            (1): BatchNorm2d(128, eps=1e-05, momentum=0.1, affine=True, track_running_stats=True)
            (2): LeakyReLU(negative_slope=0.01)
          )
        )
      )
      (upstream_conv4): Sequential(
        (0): Conv(
          (conv): Sequential(
            (0): Conv2d(512, 256, kernel_size=(1, 1), stride=(1, 1), bias=False)
            (1): BatchNorm2d(256, eps=1e-05, momentum=0.1, affine=True, track_running_stats=True)
            (2): LeakyReLU(negative_slope=0.01)
          )
        )
        (1): Conv(
          (conv): Sequential(
            (0): Conv2d(256, 512, kernel_size=(3, 3), stride=(1, 1), padding=(1, 1), bias=False)
            (1): BatchNorm2d(512, eps=1e-05, momentum=0.1, affine=True, track_running_stats=True)
            (2): LeakyReLU(negative_slope=0.01)
          )
        )
        (2): Conv(
          (conv): Sequential(
            (0): Conv2d(512, 256, kernel_size=(1, 1), stride=(1, 1), bias=False)
            (1): BatchNorm2d(256, eps=1e-05, momentum=0.1, affine=True, track_running_stats=True)
            (2): LeakyReLU(negative_slope=0.01)
          )
        )
        (3): Conv(
          (conv): Sequential(
            (0): Conv2d(256, 512, kernel_size=(3, 3), stride=(1, 1), padding=(1, 1), bias=False)
            (1): BatchNorm2d(512, eps=1e-05, momentum=0.1, affine=True, track_running_stats=True)
            (2): LeakyReLU(negative_slope=0.01)
          )
        )
        (4): Conv(
          (conv): Sequential(
            (0): Conv2d(512, 256, kernel_size=(1, 1), stride=(1, 1), bias=False)
            (1): BatchNorm2d(256, eps=1e-05, momentum=0.1, affine=True, track_running_stats=True)
            (2): LeakyReLU(negative_slope=0.01)
          )
        )
      )
      (upstream_conv5): Sequential(
        (0): Conv(
          (conv): Sequential(
            (0): Conv2d(1024, 512, kernel_size=(1, 1), stride=(1, 1), bias=False)
            (1): BatchNorm2d(512, eps=1e-05, momentum=0.1, affine=True, track_running_stats=True)
            (2): LeakyReLU(negative_slope=0.01)
          )
        )
        (1): Conv(
          (conv): Sequential(
            (0): Conv2d(512, 1024, kernel_size=(3, 3), stride=(1, 1), padding=(1, 1), bias=False)
            (1): BatchNorm2d(1024, eps=1e-05, momentum=0.1, affine=True, track_running_stats=True)
            (2): LeakyReLU(negative_slope=0.01)
          )
        )
        (2): Conv(
          (conv): Sequential(
            (0): Conv2d(1024, 512, kernel_size=(1, 1), stride=(1, 1), bias=False)
            (1): BatchNorm2d(512, eps=1e-05, momentum=0.1, affine=True, track_running_stats=True)
            (2): LeakyReLU(negative_slope=0.01)
          )
        )
        (3): Conv(
          (conv): Sequential(
            (0): Conv2d(512, 1024, kernel_size=(3, 3), stride=(1, 1), padding=(1, 1), bias=False)
            (1): BatchNorm2d(1024, eps=1e-05, momentum=0.1, affine=True, track_running_stats=True)
            (2): LeakyReLU(negative_slope=0.01)
          )
        )
        (4): Conv(
          (conv): Sequential(
            (0): Conv2d(1024, 512, kernel_size=(1, 1), stride=(1, 1), bias=False)
            (1): BatchNorm2d(512, eps=1e-05, momentum=0.1, affine=True, track_running_stats=True)
            (2): LeakyReLU(negative_slope=0.01)
          )
        )
      )
    )
    (predict_net): PredictNet(
      (predict_conv): ModuleList(
        (0): Sequential(
          (0): Conv(
            (conv): Sequential(
              (0): Conv2d(128, 256, kernel_size=(3, 3), stride=(1, 1), padding=(1, 1), bias=False)
              (1): BatchNorm2d(256, eps=1e-05, momentum=0.1, affine=True, track_running_stats=True)
              (2): LeakyReLU(negative_slope=0.01)
            )
          )
          (1): Conv2d(256, 75, kernel_size=(1, 1), stride=(1, 1))
        )
        (1): Sequential(
          (0): Conv(
            (conv): Sequential(
              (0): Conv2d(256, 512, kernel_size=(3, 3), stride=(1, 1), padding=(1, 1), bias=False)
              (1): BatchNorm2d(512, eps=1e-05, momentum=0.1, affine=True, track_running_stats=True)
              (2): LeakyReLU(negative_slope=0.01)
            )
          )
          (1): Conv2d(512, 75, kernel_size=(1, 1), stride=(1, 1))
        )
        (2): Sequential(
          (0): Conv(
            (conv): Sequential(
              (0): Conv2d(512, 1024, kernel_size=(3, 3), stride=(1, 1), padding=(1, 1), bias=False)
              (1): BatchNorm2d(1024, eps=1e-05, momentum=0.1, affine=True, track_running_stats=True)
              (2): LeakyReLU(negative_slope=0.01)
            )
          )
          (1): Conv2d(1024, 75, kernel_size=(1, 1), stride=(1, 1))
        )
      )
    )
  )
  (_Build_Model__head_s): Yolo_head()
  (_Build_Model__head_m): Yolo_head()
  (_Build_Model__head_l): Yolo_head()
) 
[2021-06-28 11:00:16,901]-[train.py line:154]:Train datasets number is : 16551 
[2021-06-28 11:00:16,902]-[train.py line:162]:        =======  start  training   ======      
[2021-06-28 11:00:16,903]-[train.py line:168]:===Epoch:[0/50]=== 
[2021-06-28 11:00:18,388]-[train.py line:235]:  === Epoch:[  0/50],step:[  0/16550],img_size:[416],total_loss:1868.1722|loss_ciou:1.5601|loss_conf:1840.0916|loss_cls:26.5207|lr:0.0000 
[2021-06-28 11:00:21,004]-[train.py line:235]:  === Epoch:[  0/50],step:[ 10/16550],img_size:[384],total_loss:1915.3331|loss_ciou:8.1937|loss_conf:1804.9441|loss_cls:102.1954|lr:0.0000 
[2021-07-01 14:45:01,045]-[train.py line:149]:Training start,img size is: 608,batchsize is: 1,work number is 4 
[2021-07-01 14:45:01,045]-[train.py line:152]:Build_Model(
  (_Build_Model__yolov4): YOLOv4(
    (backbone): CSPDarknet53(
      (stem_conv): Convolutional(
        (_Convolutional__conv): Conv2d(3, 32, kernel_size=(3, 3), stride=(1, 1), padding=(1, 1), bias=False)
        (_Convolutional__norm): BatchNorm2d(32, eps=1e-05, momentum=0.1, affine=True, track_running_stats=True)
        (_Convolutional__activate): Mish()
      )
      (stages): ModuleList(
        (0): CSPFirstStage(
          (downsample_conv): Convolutional(
            (_Convolutional__conv): Conv2d(32, 64, kernel_size=(3, 3), stride=(2, 2), padding=(1, 1), bias=False)
            (_Convolutional__norm): BatchNorm2d(64, eps=1e-05, momentum=0.1, affine=True, track_running_stats=True)
            (_Convolutional__activate): Mish()
          )
          (split_conv0): Convolutional(
            (_Convolutional__conv): Conv2d(64, 64, kernel_size=(1, 1), stride=(1, 1), bias=False)
            (_Convolutional__norm): BatchNorm2d(64, eps=1e-05, momentum=0.1, affine=True, track_running_stats=True)
            (_Convolutional__activate): Mish()
          )
          (split_conv1): Convolutional(
            (_Convolutional__conv): Conv2d(64, 64, kernel_size=(1, 1), stride=(1, 1), bias=False)
            (_Convolutional__norm): BatchNorm2d(64, eps=1e-05, momentum=0.1, affine=True, track_running_stats=True)
            (_Convolutional__activate): Mish()
          )
          (blocks_conv): Sequential(
            (0): CSPBlock(
              (block): Sequential(
                (0): Convolutional(
                  (_Convolutional__conv): Conv2d(64, 32, kernel_size=(1, 1), stride=(1, 1), bias=False)
                  (_Convolutional__norm): BatchNorm2d(32, eps=1e-05, momentum=0.1, affine=True, track_running_stats=True)
                  (_Convolutional__activate): Mish()
                )
                (1): Convolutional(
                  (_Convolutional__conv): Conv2d(32, 64, kernel_size=(3, 3), stride=(1, 1), padding=(1, 1), bias=False)
                  (_Convolutional__norm): BatchNorm2d(64, eps=1e-05, momentum=0.1, affine=True, track_running_stats=True)
                  (_Convolutional__activate): Mish()
                )
              )
              (activation): Identity()
              (attention_module): ShuffleAttention(
                (avg_pool): AdaptiveAvgPool2d(output_size=1)
                (gn): GroupNorm(4, 4, eps=1e-05, affine=True)
                (sigmoid): Sigmoid()
              )
            )
            (1): Convolutional(
              (_Convolutional__conv): Conv2d(64, 64, kernel_size=(1, 1), stride=(1, 1), bias=False)
              (_Convolutional__norm): BatchNorm2d(64, eps=1e-05, momentum=0.1, affine=True, track_running_stats=True)
              (_Convolutional__activate): Mish()
            )
          )
          (concat_conv): Convolutional(
            (_Convolutional__conv): Conv2d(128, 64, kernel_size=(1, 1), stride=(1, 1), bias=False)
            (_Convolutional__norm): BatchNorm2d(64, eps=1e-05, momentum=0.1, affine=True, track_running_stats=True)
            (_Convolutional__activate): Mish()
          )
        )
        (1): CSPStage(
          (downsample_conv): Convolutional(
            (_Convolutional__conv): Conv2d(64, 128, kernel_size=(3, 3), stride=(2, 2), padding=(1, 1), bias=False)
            (_Convolutional__norm): BatchNorm2d(128, eps=1e-05, momentum=0.1, affine=True, track_running_stats=True)
            (_Convolutional__activate): Mish()
          )
          (split_conv0): Convolutional(
            (_Convolutional__conv): Conv2d(128, 64, kernel_size=(1, 1), stride=(1, 1), bias=False)
            (_Convolutional__norm): BatchNorm2d(64, eps=1e-05, momentum=0.1, affine=True, track_running_stats=True)
            (_Convolutional__activate): Mish()
          )
          (split_conv1): Convolutional(
            (_Convolutional__conv): Conv2d(128, 64, kernel_size=(1, 1), stride=(1, 1), bias=False)
            (_Convolutional__norm): BatchNorm2d(64, eps=1e-05, momentum=0.1, affine=True, track_running_stats=True)
            (_Convolutional__activate): Mish()
          )
          (blocks_conv): Sequential(
            (0): CSPBlock(
              (block): Sequential(
                (0): Convolutional(
                  (_Convolutional__conv): Conv2d(64, 64, kernel_size=(1, 1), stride=(1, 1), bias=False)
                  (_Convolutional__norm): BatchNorm2d(64, eps=1e-05, momentum=0.1, affine=True, track_running_stats=True)
                  (_Convolutional__activate): Mish()
                )
                (1): Convolutional(
                  (_Convolutional__conv): Conv2d(64, 64, kernel_size=(3, 3), stride=(1, 1), padding=(1, 1), bias=False)
                  (_Convolutional__norm): BatchNorm2d(64, eps=1e-05, momentum=0.1, affine=True, track_running_stats=True)
                  (_Convolutional__activate): Mish()
                )
              )
              (activation): Identity()
              (attention_module): ShuffleAttention(
                (avg_pool): AdaptiveAvgPool2d(output_size=1)
                (gn): GroupNorm(4, 4, eps=1e-05, affine=True)
                (sigmoid): Sigmoid()
              )
            )
            (1): CSPBlock(
              (block): Sequential(
                (0): Convolutional(
                  (_Convolutional__conv): Conv2d(64, 64, kernel_size=(1, 1), stride=(1, 1), bias=False)
                  (_Convolutional__norm): BatchNorm2d(64, eps=1e-05, momentum=0.1, affine=True, track_running_stats=True)
                  (_Convolutional__activate): Mish()
                )
                (1): Convolutional(
                  (_Convolutional__conv): Conv2d(64, 64, kernel_size=(3, 3), stride=(1, 1), padding=(1, 1), bias=False)
                  (_Convolutional__norm): BatchNorm2d(64, eps=1e-05, momentum=0.1, affine=True, track_running_stats=True)
                  (_Convolutional__activate): Mish()
                )
              )
              (activation): Identity()
              (attention_module): ShuffleAttention(
                (avg_pool): AdaptiveAvgPool2d(output_size=1)
                (gn): GroupNorm(4, 4, eps=1e-05, affine=True)
                (sigmoid): Sigmoid()
              )
            )
            (2): Convolutional(
              (_Convolutional__conv): Conv2d(64, 64, kernel_size=(1, 1), stride=(1, 1), bias=False)
              (_Convolutional__norm): BatchNorm2d(64, eps=1e-05, momentum=0.1, affine=True, track_running_stats=True)
              (_Convolutional__activate): Mish()
            )
          )
          (concat_conv): Convolutional(
            (_Convolutional__conv): Conv2d(128, 128, kernel_size=(1, 1), stride=(1, 1), bias=False)
            (_Convolutional__norm): BatchNorm2d(128, eps=1e-05, momentum=0.1, affine=True, track_running_stats=True)
            (_Convolutional__activate): Mish()
          )
        )
        (2): CSPStage(
          (downsample_conv): Convolutional(
            (_Convolutional__conv): Conv2d(128, 256, kernel_size=(3, 3), stride=(2, 2), padding=(1, 1), bias=False)
            (_Convolutional__norm): BatchNorm2d(256, eps=1e-05, momentum=0.1, affine=True, track_running_stats=True)
            (_Convolutional__activate): Mish()
          )
          (split_conv0): Convolutional(
            (_Convolutional__conv): Conv2d(256, 128, kernel_size=(1, 1), stride=(1, 1), bias=False)
            (_Convolutional__norm): BatchNorm2d(128, eps=1e-05, momentum=0.1, affine=True, track_running_stats=True)
            (_Convolutional__activate): Mish()
          )
          (split_conv1): Convolutional(
            (_Convolutional__conv): Conv2d(256, 128, kernel_size=(1, 1), stride=(1, 1), bias=False)
            (_Convolutional__norm): BatchNorm2d(128, eps=1e-05, momentum=0.1, affine=True, track_running_stats=True)
            (_Convolutional__activate): Mish()
          )
          (blocks_conv): Sequential(
            (0): CSPBlock(
              (block): Sequential(
                (0): Convolutional(
                  (_Convolutional__conv): Conv2d(128, 128, kernel_size=(1, 1), stride=(1, 1), bias=False)
                  (_Convolutional__norm): BatchNorm2d(128, eps=1e-05, momentum=0.1, affine=True, track_running_stats=True)
                  (_Convolutional__activate): Mish()
                )
                (1): Convolutional(
                  (_Convolutional__conv): Conv2d(128, 128, kernel_size=(3, 3), stride=(1, 1), padding=(1, 1), bias=False)
                  (_Convolutional__norm): BatchNorm2d(128, eps=1e-05, momentum=0.1, affine=True, track_running_stats=True)
                  (_Convolutional__activate): Mish()
                )
              )
              (activation): Identity()
              (attention_module): ShuffleAttention(
                (avg_pool): AdaptiveAvgPool2d(output_size=1)
                (gn): GroupNorm(8, 8, eps=1e-05, affine=True)
                (sigmoid): Sigmoid()
              )
            )
            (1): CSPBlock(
              (block): Sequential(
                (0): Convolutional(
                  (_Convolutional__conv): Conv2d(128, 128, kernel_size=(1, 1), stride=(1, 1), bias=False)
                  (_Convolutional__norm): BatchNorm2d(128, eps=1e-05, momentum=0.1, affine=True, track_running_stats=True)
                  (_Convolutional__activate): Mish()
                )
                (1): Convolutional(
                  (_Convolutional__conv): Conv2d(128, 128, kernel_size=(3, 3), stride=(1, 1), padding=(1, 1), bias=False)
                  (_Convolutional__norm): BatchNorm2d(128, eps=1e-05, momentum=0.1, affine=True, track_running_stats=True)
                  (_Convolutional__activate): Mish()
                )
              )
              (activation): Identity()
              (attention_module): ShuffleAttention(
                (avg_pool): AdaptiveAvgPool2d(output_size=1)
                (gn): GroupNorm(8, 8, eps=1e-05, affine=True)
                (sigmoid): Sigmoid()
              )
            )
            (2): CSPBlock(
              (block): Sequential(
                (0): Convolutional(
                  (_Convolutional__conv): Conv2d(128, 128, kernel_size=(1, 1), stride=(1, 1), bias=False)
                  (_Convolutional__norm): BatchNorm2d(128, eps=1e-05, momentum=0.1, affine=True, track_running_stats=True)
                  (_Convolutional__activate): Mish()
                )
                (1): Convolutional(
                  (_Convolutional__conv): Conv2d(128, 128, kernel_size=(3, 3), stride=(1, 1), padding=(1, 1), bias=False)
                  (_Convolutional__norm): BatchNorm2d(128, eps=1e-05, momentum=0.1, affine=True, track_running_stats=True)
                  (_Convolutional__activate): Mish()
                )
              )
              (activation): Identity()
              (attention_module): ShuffleAttention(
                (avg_pool): AdaptiveAvgPool2d(output_size=1)
                (gn): GroupNorm(8, 8, eps=1e-05, affine=True)
                (sigmoid): Sigmoid()
              )
            )
            (3): CSPBlock(
              (block): Sequential(
                (0): Convolutional(
                  (_Convolutional__conv): Conv2d(128, 128, kernel_size=(1, 1), stride=(1, 1), bias=False)
                  (_Convolutional__norm): BatchNorm2d(128, eps=1e-05, momentum=0.1, affine=True, track_running_stats=True)
                  (_Convolutional__activate): Mish()
                )
                (1): Convolutional(
                  (_Convolutional__conv): Conv2d(128, 128, kernel_size=(3, 3), stride=(1, 1), padding=(1, 1), bias=False)
                  (_Convolutional__norm): BatchNorm2d(128, eps=1e-05, momentum=0.1, affine=True, track_running_stats=True)
                  (_Convolutional__activate): Mish()
                )
              )
              (activation): Identity()
              (attention_module): ShuffleAttention(
                (avg_pool): AdaptiveAvgPool2d(output_size=1)
                (gn): GroupNorm(8, 8, eps=1e-05, affine=True)
                (sigmoid): Sigmoid()
              )
            )
            (4): CSPBlock(
              (block): Sequential(
                (0): Convolutional(
                  (_Convolutional__conv): Conv2d(128, 128, kernel_size=(1, 1), stride=(1, 1), bias=False)
                  (_Convolutional__norm): BatchNorm2d(128, eps=1e-05, momentum=0.1, affine=True, track_running_stats=True)
                  (_Convolutional__activate): Mish()
                )
                (1): Convolutional(
                  (_Convolutional__conv): Conv2d(128, 128, kernel_size=(3, 3), stride=(1, 1), padding=(1, 1), bias=False)
                  (_Convolutional__norm): BatchNorm2d(128, eps=1e-05, momentum=0.1, affine=True, track_running_stats=True)
                  (_Convolutional__activate): Mish()
                )
              )
              (activation): Identity()
              (attention_module): ShuffleAttention(
                (avg_pool): AdaptiveAvgPool2d(output_size=1)
                (gn): GroupNorm(8, 8, eps=1e-05, affine=True)
                (sigmoid): Sigmoid()
              )
            )
            (5): CSPBlock(
              (block): Sequential(
                (0): Convolutional(
                  (_Convolutional__conv): Conv2d(128, 128, kernel_size=(1, 1), stride=(1, 1), bias=False)
                  (_Convolutional__norm): BatchNorm2d(128, eps=1e-05, momentum=0.1, affine=True, track_running_stats=True)
                  (_Convolutional__activate): Mish()
                )
                (1): Convolutional(
                  (_Convolutional__conv): Conv2d(128, 128, kernel_size=(3, 3), stride=(1, 1), padding=(1, 1), bias=False)
                  (_Convolutional__norm): BatchNorm2d(128, eps=1e-05, momentum=0.1, affine=True, track_running_stats=True)
                  (_Convolutional__activate): Mish()
                )
              )
              (activation): Identity()
              (attention_module): ShuffleAttention(
                (avg_pool): AdaptiveAvgPool2d(output_size=1)
                (gn): GroupNorm(8, 8, eps=1e-05, affine=True)
                (sigmoid): Sigmoid()
              )
            )
            (6): CSPBlock(
              (block): Sequential(
                (0): Convolutional(
                  (_Convolutional__conv): Conv2d(128, 128, kernel_size=(1, 1), stride=(1, 1), bias=False)
                  (_Convolutional__norm): BatchNorm2d(128, eps=1e-05, momentum=0.1, affine=True, track_running_stats=True)
                  (_Convolutional__activate): Mish()
                )
                (1): Convolutional(
                  (_Convolutional__conv): Conv2d(128, 128, kernel_size=(3, 3), stride=(1, 1), padding=(1, 1), bias=False)
                  (_Convolutional__norm): BatchNorm2d(128, eps=1e-05, momentum=0.1, affine=True, track_running_stats=True)
                  (_Convolutional__activate): Mish()
                )
              )
              (activation): Identity()
              (attention_module): ShuffleAttention(
                (avg_pool): AdaptiveAvgPool2d(output_size=1)
                (gn): GroupNorm(8, 8, eps=1e-05, affine=True)
                (sigmoid): Sigmoid()
              )
            )
            (7): CSPBlock(
              (block): Sequential(
                (0): Convolutional(
                  (_Convolutional__conv): Conv2d(128, 128, kernel_size=(1, 1), stride=(1, 1), bias=False)
                  (_Convolutional__norm): BatchNorm2d(128, eps=1e-05, momentum=0.1, affine=True, track_running_stats=True)
                  (_Convolutional__activate): Mish()
                )
                (1): Convolutional(
                  (_Convolutional__conv): Conv2d(128, 128, kernel_size=(3, 3), stride=(1, 1), padding=(1, 1), bias=False)
                  (_Convolutional__norm): BatchNorm2d(128, eps=1e-05, momentum=0.1, affine=True, track_running_stats=True)
                  (_Convolutional__activate): Mish()
                )
              )
              (activation): Identity()
              (attention_module): ShuffleAttention(
                (avg_pool): AdaptiveAvgPool2d(output_size=1)
                (gn): GroupNorm(8, 8, eps=1e-05, affine=True)
                (sigmoid): Sigmoid()
              )
            )
            (8): Convolutional(
              (_Convolutional__conv): Conv2d(128, 128, kernel_size=(1, 1), stride=(1, 1), bias=False)
              (_Convolutional__norm): BatchNorm2d(128, eps=1e-05, momentum=0.1, affine=True, track_running_stats=True)
              (_Convolutional__activate): Mish()
            )
          )
          (concat_conv): Convolutional(
            (_Convolutional__conv): Conv2d(256, 256, kernel_size=(1, 1), stride=(1, 1), bias=False)
            (_Convolutional__norm): BatchNorm2d(256, eps=1e-05, momentum=0.1, affine=True, track_running_stats=True)
            (_Convolutional__activate): Mish()
          )
        )
        (3): CSPStage(
          (downsample_conv): Convolutional(
            (_Convolutional__conv): Conv2d(256, 512, kernel_size=(3, 3), stride=(2, 2), padding=(1, 1), bias=False)
            (_Convolutional__norm): BatchNorm2d(512, eps=1e-05, momentum=0.1, affine=True, track_running_stats=True)
            (_Convolutional__activate): Mish()
          )
          (split_conv0): Convolutional(
            (_Convolutional__conv): Conv2d(512, 256, kernel_size=(1, 1), stride=(1, 1), bias=False)
            (_Convolutional__norm): BatchNorm2d(256, eps=1e-05, momentum=0.1, affine=True, track_running_stats=True)
            (_Convolutional__activate): Mish()
          )
          (split_conv1): Convolutional(
            (_Convolutional__conv): Conv2d(512, 256, kernel_size=(1, 1), stride=(1, 1), bias=False)
            (_Convolutional__norm): BatchNorm2d(256, eps=1e-05, momentum=0.1, affine=True, track_running_stats=True)
            (_Convolutional__activate): Mish()
          )
          (blocks_conv): Sequential(
            (0): CSPBlock(
              (block): Sequential(
                (0): Convolutional(
                  (_Convolutional__conv): Conv2d(256, 256, kernel_size=(1, 1), stride=(1, 1), bias=False)
                  (_Convolutional__norm): BatchNorm2d(256, eps=1e-05, momentum=0.1, affine=True, track_running_stats=True)
                  (_Convolutional__activate): Mish()
                )
                (1): Convolutional(
                  (_Convolutional__conv): Conv2d(256, 256, kernel_size=(3, 3), stride=(1, 1), padding=(1, 1), bias=False)
                  (_Convolutional__norm): BatchNorm2d(256, eps=1e-05, momentum=0.1, affine=True, track_running_stats=True)
                  (_Convolutional__activate): Mish()
                )
              )
              (activation): Identity()
              (attention_module): ShuffleAttention(
                (avg_pool): AdaptiveAvgPool2d(output_size=1)
                (gn): GroupNorm(16, 16, eps=1e-05, affine=True)
                (sigmoid): Sigmoid()
              )
            )
            (1): CSPBlock(
              (block): Sequential(
                (0): Convolutional(
                  (_Convolutional__conv): Conv2d(256, 256, kernel_size=(1, 1), stride=(1, 1), bias=False)
                  (_Convolutional__norm): BatchNorm2d(256, eps=1e-05, momentum=0.1, affine=True, track_running_stats=True)
                  (_Convolutional__activate): Mish()
                )
                (1): Convolutional(
                  (_Convolutional__conv): Conv2d(256, 256, kernel_size=(3, 3), stride=(1, 1), padding=(1, 1), bias=False)
                  (_Convolutional__norm): BatchNorm2d(256, eps=1e-05, momentum=0.1, affine=True, track_running_stats=True)
                  (_Convolutional__activate): Mish()
                )
              )
              (activation): Identity()
              (attention_module): ShuffleAttention(
                (avg_pool): AdaptiveAvgPool2d(output_size=1)
                (gn): GroupNorm(16, 16, eps=1e-05, affine=True)
                (sigmoid): Sigmoid()
              )
            )
            (2): CSPBlock(
              (block): Sequential(
                (0): Convolutional(
                  (_Convolutional__conv): Conv2d(256, 256, kernel_size=(1, 1), stride=(1, 1), bias=False)
                  (_Convolutional__norm): BatchNorm2d(256, eps=1e-05, momentum=0.1, affine=True, track_running_stats=True)
                  (_Convolutional__activate): Mish()
                )
                (1): Convolutional(
                  (_Convolutional__conv): Conv2d(256, 256, kernel_size=(3, 3), stride=(1, 1), padding=(1, 1), bias=False)
                  (_Convolutional__norm): BatchNorm2d(256, eps=1e-05, momentum=0.1, affine=True, track_running_stats=True)
                  (_Convolutional__activate): Mish()
                )
              )
              (activation): Identity()
              (attention_module): ShuffleAttention(
                (avg_pool): AdaptiveAvgPool2d(output_size=1)
                (gn): GroupNorm(16, 16, eps=1e-05, affine=True)
                (sigmoid): Sigmoid()
              )
            )
            (3): CSPBlock(
              (block): Sequential(
                (0): Convolutional(
                  (_Convolutional__conv): Conv2d(256, 256, kernel_size=(1, 1), stride=(1, 1), bias=False)
                  (_Convolutional__norm): BatchNorm2d(256, eps=1e-05, momentum=0.1, affine=True, track_running_stats=True)
                  (_Convolutional__activate): Mish()
                )
                (1): Convolutional(
                  (_Convolutional__conv): Conv2d(256, 256, kernel_size=(3, 3), stride=(1, 1), padding=(1, 1), bias=False)
                  (_Convolutional__norm): BatchNorm2d(256, eps=1e-05, momentum=0.1, affine=True, track_running_stats=True)
                  (_Convolutional__activate): Mish()
                )
              )
              (activation): Identity()
              (attention_module): ShuffleAttention(
                (avg_pool): AdaptiveAvgPool2d(output_size=1)
                (gn): GroupNorm(16, 16, eps=1e-05, affine=True)
                (sigmoid): Sigmoid()
              )
            )
            (4): CSPBlock(
              (block): Sequential(
                (0): Convolutional(
                  (_Convolutional__conv): Conv2d(256, 256, kernel_size=(1, 1), stride=(1, 1), bias=False)
                  (_Convolutional__norm): BatchNorm2d(256, eps=1e-05, momentum=0.1, affine=True, track_running_stats=True)
                  (_Convolutional__activate): Mish()
                )
                (1): Convolutional(
                  (_Convolutional__conv): Conv2d(256, 256, kernel_size=(3, 3), stride=(1, 1), padding=(1, 1), bias=False)
                  (_Convolutional__norm): BatchNorm2d(256, eps=1e-05, momentum=0.1, affine=True, track_running_stats=True)
                  (_Convolutional__activate): Mish()
                )
              )
              (activation): Identity()
              (attention_module): ShuffleAttention(
                (avg_pool): AdaptiveAvgPool2d(output_size=1)
                (gn): GroupNorm(16, 16, eps=1e-05, affine=True)
                (sigmoid): Sigmoid()
              )
            )
            (5): CSPBlock(
              (block): Sequential(
                (0): Convolutional(
                  (_Convolutional__conv): Conv2d(256, 256, kernel_size=(1, 1), stride=(1, 1), bias=False)
                  (_Convolutional__norm): BatchNorm2d(256, eps=1e-05, momentum=0.1, affine=True, track_running_stats=True)
                  (_Convolutional__activate): Mish()
                )
                (1): Convolutional(
                  (_Convolutional__conv): Conv2d(256, 256, kernel_size=(3, 3), stride=(1, 1), padding=(1, 1), bias=False)
                  (_Convolutional__norm): BatchNorm2d(256, eps=1e-05, momentum=0.1, affine=True, track_running_stats=True)
                  (_Convolutional__activate): Mish()
                )
              )
              (activation): Identity()
              (attention_module): ShuffleAttention(
                (avg_pool): AdaptiveAvgPool2d(output_size=1)
                (gn): GroupNorm(16, 16, eps=1e-05, affine=True)
                (sigmoid): Sigmoid()
              )
            )
            (6): CSPBlock(
              (block): Sequential(
                (0): Convolutional(
                  (_Convolutional__conv): Conv2d(256, 256, kernel_size=(1, 1), stride=(1, 1), bias=False)
                  (_Convolutional__norm): BatchNorm2d(256, eps=1e-05, momentum=0.1, affine=True, track_running_stats=True)
                  (_Convolutional__activate): Mish()
                )
                (1): Convolutional(
                  (_Convolutional__conv): Conv2d(256, 256, kernel_size=(3, 3), stride=(1, 1), padding=(1, 1), bias=False)
                  (_Convolutional__norm): BatchNorm2d(256, eps=1e-05, momentum=0.1, affine=True, track_running_stats=True)
                  (_Convolutional__activate): Mish()
                )
              )
              (activation): Identity()
              (attention_module): ShuffleAttention(
                (avg_pool): AdaptiveAvgPool2d(output_size=1)
                (gn): GroupNorm(16, 16, eps=1e-05, affine=True)
                (sigmoid): Sigmoid()
              )
            )
            (7): CSPBlock(
              (block): Sequential(
                (0): Convolutional(
                  (_Convolutional__conv): Conv2d(256, 256, kernel_size=(1, 1), stride=(1, 1), bias=False)
                  (_Convolutional__norm): BatchNorm2d(256, eps=1e-05, momentum=0.1, affine=True, track_running_stats=True)
                  (_Convolutional__activate): Mish()
                )
                (1): Convolutional(
                  (_Convolutional__conv): Conv2d(256, 256, kernel_size=(3, 3), stride=(1, 1), padding=(1, 1), bias=False)
                  (_Convolutional__norm): BatchNorm2d(256, eps=1e-05, momentum=0.1, affine=True, track_running_stats=True)
                  (_Convolutional__activate): Mish()
                )
              )
              (activation): Identity()
              (attention_module): ShuffleAttention(
                (avg_pool): AdaptiveAvgPool2d(output_size=1)
                (gn): GroupNorm(16, 16, eps=1e-05, affine=True)
                (sigmoid): Sigmoid()
              )
            )
            (8): Convolutional(
              (_Convolutional__conv): Conv2d(256, 256, kernel_size=(1, 1), stride=(1, 1), bias=False)
              (_Convolutional__norm): BatchNorm2d(256, eps=1e-05, momentum=0.1, affine=True, track_running_stats=True)
              (_Convolutional__activate): Mish()
            )
          )
          (concat_conv): Convolutional(
            (_Convolutional__conv): Conv2d(512, 512, kernel_size=(1, 1), stride=(1, 1), bias=False)
            (_Convolutional__norm): BatchNorm2d(512, eps=1e-05, momentum=0.1, affine=True, track_running_stats=True)
            (_Convolutional__activate): Mish()
          )
        )
        (4): CSPStage(
          (downsample_conv): Convolutional(
            (_Convolutional__conv): Conv2d(512, 1024, kernel_size=(3, 3), stride=(2, 2), padding=(1, 1), bias=False)
            (_Convolutional__norm): BatchNorm2d(1024, eps=1e-05, momentum=0.1, affine=True, track_running_stats=True)
            (_Convolutional__activate): Mish()
          )
          (split_conv0): Convolutional(
            (_Convolutional__conv): Conv2d(1024, 512, kernel_size=(1, 1), stride=(1, 1), bias=False)
            (_Convolutional__norm): BatchNorm2d(512, eps=1e-05, momentum=0.1, affine=True, track_running_stats=True)
            (_Convolutional__activate): Mish()
          )
          (split_conv1): Convolutional(
            (_Convolutional__conv): Conv2d(1024, 512, kernel_size=(1, 1), stride=(1, 1), bias=False)
            (_Convolutional__norm): BatchNorm2d(512, eps=1e-05, momentum=0.1, affine=True, track_running_stats=True)
            (_Convolutional__activate): Mish()
          )
          (blocks_conv): Sequential(
            (0): CSPBlock(
              (block): Sequential(
                (0): Convolutional(
                  (_Convolutional__conv): Conv2d(512, 512, kernel_size=(1, 1), stride=(1, 1), bias=False)
                  (_Convolutional__norm): BatchNorm2d(512, eps=1e-05, momentum=0.1, affine=True, track_running_stats=True)
                  (_Convolutional__activate): Mish()
                )
                (1): Convolutional(
                  (_Convolutional__conv): Conv2d(512, 512, kernel_size=(3, 3), stride=(1, 1), padding=(1, 1), bias=False)
                  (_Convolutional__norm): BatchNorm2d(512, eps=1e-05, momentum=0.1, affine=True, track_running_stats=True)
                  (_Convolutional__activate): Mish()
                )
              )
              (activation): Identity()
              (attention_module): ShuffleAttention(
                (avg_pool): AdaptiveAvgPool2d(output_size=1)
                (gn): GroupNorm(32, 32, eps=1e-05, affine=True)
                (sigmoid): Sigmoid()
              )
            )
            (1): CSPBlock(
              (block): Sequential(
                (0): Convolutional(
                  (_Convolutional__conv): Conv2d(512, 512, kernel_size=(1, 1), stride=(1, 1), bias=False)
                  (_Convolutional__norm): BatchNorm2d(512, eps=1e-05, momentum=0.1, affine=True, track_running_stats=True)
                  (_Convolutional__activate): Mish()
                )
                (1): Convolutional(
                  (_Convolutional__conv): Conv2d(512, 512, kernel_size=(3, 3), stride=(1, 1), padding=(1, 1), bias=False)
                  (_Convolutional__norm): BatchNorm2d(512, eps=1e-05, momentum=0.1, affine=True, track_running_stats=True)
                  (_Convolutional__activate): Mish()
                )
              )
              (activation): Identity()
              (attention_module): ShuffleAttention(
                (avg_pool): AdaptiveAvgPool2d(output_size=1)
                (gn): GroupNorm(32, 32, eps=1e-05, affine=True)
                (sigmoid): Sigmoid()
              )
            )
            (2): CSPBlock(
              (block): Sequential(
                (0): Convolutional(
                  (_Convolutional__conv): Conv2d(512, 512, kernel_size=(1, 1), stride=(1, 1), bias=False)
                  (_Convolutional__norm): BatchNorm2d(512, eps=1e-05, momentum=0.1, affine=True, track_running_stats=True)
                  (_Convolutional__activate): Mish()
                )
                (1): Convolutional(
                  (_Convolutional__conv): Conv2d(512, 512, kernel_size=(3, 3), stride=(1, 1), padding=(1, 1), bias=False)
                  (_Convolutional__norm): BatchNorm2d(512, eps=1e-05, momentum=0.1, affine=True, track_running_stats=True)
                  (_Convolutional__activate): Mish()
                )
              )
              (activation): Identity()
              (attention_module): ShuffleAttention(
                (avg_pool): AdaptiveAvgPool2d(output_size=1)
                (gn): GroupNorm(32, 32, eps=1e-05, affine=True)
                (sigmoid): Sigmoid()
              )
            )
            (3): CSPBlock(
              (block): Sequential(
                (0): Convolutional(
                  (_Convolutional__conv): Conv2d(512, 512, kernel_size=(1, 1), stride=(1, 1), bias=False)
                  (_Convolutional__norm): BatchNorm2d(512, eps=1e-05, momentum=0.1, affine=True, track_running_stats=True)
                  (_Convolutional__activate): Mish()
                )
                (1): Convolutional(
                  (_Convolutional__conv): Conv2d(512, 512, kernel_size=(3, 3), stride=(1, 1), padding=(1, 1), bias=False)
                  (_Convolutional__norm): BatchNorm2d(512, eps=1e-05, momentum=0.1, affine=True, track_running_stats=True)
                  (_Convolutional__activate): Mish()
                )
              )
              (activation): Identity()
              (attention_module): ShuffleAttention(
                (avg_pool): AdaptiveAvgPool2d(output_size=1)
                (gn): GroupNorm(32, 32, eps=1e-05, affine=True)
                (sigmoid): Sigmoid()
              )
            )
            (4): Convolutional(
              (_Convolutional__conv): Conv2d(512, 512, kernel_size=(1, 1), stride=(1, 1), bias=False)
              (_Convolutional__norm): BatchNorm2d(512, eps=1e-05, momentum=0.1, affine=True, track_running_stats=True)
              (_Convolutional__activate): Mish()
            )
          )
          (concat_conv): Convolutional(
            (_Convolutional__conv): Conv2d(1024, 1024, kernel_size=(1, 1), stride=(1, 1), bias=False)
            (_Convolutional__norm): BatchNorm2d(1024, eps=1e-05, momentum=0.1, affine=True, track_running_stats=True)
            (_Convolutional__activate): Mish()
          )
        )
      )
    )
    (spp): SpatialPyramidPooling(
      (head_conv): Sequential(
        (0): Conv(
          (conv): Sequential(
            (0): Conv2d(1024, 512, kernel_size=(1, 1), stride=(1, 1), bias=False)
            (1): BatchNorm2d(512, eps=1e-05, momentum=0.1, affine=True, track_running_stats=True)
            (2): LeakyReLU(negative_slope=0.01)
          )
        )
        (1): Conv(
          (conv): Sequential(
            (0): Conv2d(512, 1024, kernel_size=(3, 3), stride=(1, 1), padding=(1, 1), bias=False)
            (1): BatchNorm2d(1024, eps=1e-05, momentum=0.1, affine=True, track_running_stats=True)
            (2): LeakyReLU(negative_slope=0.01)
          )
        )
        (2): Conv(
          (conv): Sequential(
            (0): Conv2d(1024, 512, kernel_size=(1, 1), stride=(1, 1), bias=False)
            (1): BatchNorm2d(512, eps=1e-05, momentum=0.1, affine=True, track_running_stats=True)
            (2): LeakyReLU(negative_slope=0.01)
          )
        )
      )
      (maxpools): ModuleList(
        (0): MaxPool2d(kernel_size=5, stride=1, padding=2, dilation=1, ceil_mode=False)
        (1): MaxPool2d(kernel_size=9, stride=1, padding=4, dilation=1, ceil_mode=False)
        (2): MaxPool2d(kernel_size=13, stride=1, padding=6, dilation=1, ceil_mode=False)
      )
    )
    (panet): PANet(
      (feature_transform3): Conv(
        (conv): Sequential(
          (0): Conv2d(256, 128, kernel_size=(1, 1), stride=(1, 1), bias=False)
          (1): BatchNorm2d(128, eps=1e-05, momentum=0.1, affine=True, track_running_stats=True)
          (2): LeakyReLU(negative_slope=0.01)
        )
      )
      (feature_transform4): Conv(
        (conv): Sequential(
          (0): Conv2d(512, 256, kernel_size=(1, 1), stride=(1, 1), bias=False)
          (1): BatchNorm2d(256, eps=1e-05, momentum=0.1, affine=True, track_running_stats=True)
          (2): LeakyReLU(negative_slope=0.01)
        )
      )
      (resample5_4): Upsample(
        (upsample): Sequential(
          (0): Conv(
            (conv): Sequential(
              (0): Conv2d(512, 256, kernel_size=(1, 1), stride=(1, 1), bias=False)
              (1): BatchNorm2d(256, eps=1e-05, momentum=0.1, affine=True, track_running_stats=True)
              (2): LeakyReLU(negative_slope=0.01)
            )
          )
          (1): Upsample(scale_factor=2.0, mode=nearest)
        )
      )
      (resample4_3): Upsample(
        (upsample): Sequential(
          (0): Conv(
            (conv): Sequential(
              (0): Conv2d(256, 128, kernel_size=(1, 1), stride=(1, 1), bias=False)
              (1): BatchNorm2d(128, eps=1e-05, momentum=0.1, affine=True, track_running_stats=True)
              (2): LeakyReLU(negative_slope=0.01)
            )
          )
          (1): Upsample(scale_factor=2.0, mode=nearest)
        )
      )
      (resample3_4): Downsample(
        (downsample): Conv(
          (conv): Sequential(
            (0): Conv2d(128, 256, kernel_size=(3, 3), stride=(2, 2), padding=(1, 1), bias=False)
            (1): BatchNorm2d(256, eps=1e-05, momentum=0.1, affine=True, track_running_stats=True)
            (2): LeakyReLU(negative_slope=0.01)
          )
        )
      )
      (resample4_5): Downsample(
        (downsample): Conv(
          (conv): Sequential(
            (0): Conv2d(256, 512, kernel_size=(3, 3), stride=(2, 2), padding=(1, 1), bias=False)
            (1): BatchNorm2d(512, eps=1e-05, momentum=0.1, affine=True, track_running_stats=True)
            (2): LeakyReLU(negative_slope=0.01)
          )
        )
      )
      (downstream_conv5): Sequential(
        (0): Conv(
          (conv): Sequential(
            (0): Conv2d(2048, 512, kernel_size=(1, 1), stride=(1, 1), bias=False)
            (1): BatchNorm2d(512, eps=1e-05, momentum=0.1, affine=True, track_running_stats=True)
            (2): LeakyReLU(negative_slope=0.01)
          )
        )
        (1): Conv(
          (conv): Sequential(
            (0): Conv2d(512, 1024, kernel_size=(3, 3), stride=(1, 1), padding=(1, 1), bias=False)
            (1): BatchNorm2d(1024, eps=1e-05, momentum=0.1, affine=True, track_running_stats=True)
            (2): LeakyReLU(negative_slope=0.01)
          )
        )
        (2): Conv(
          (conv): Sequential(
            (0): Conv2d(1024, 512, kernel_size=(1, 1), stride=(1, 1), bias=False)
            (1): BatchNorm2d(512, eps=1e-05, momentum=0.1, affine=True, track_running_stats=True)
            (2): LeakyReLU(negative_slope=0.01)
          )
        )
      )
      (downstream_conv4): Sequential(
        (0): Conv(
          (conv): Sequential(
            (0): Conv2d(512, 256, kernel_size=(1, 1), stride=(1, 1), bias=False)
            (1): BatchNorm2d(256, eps=1e-05, momentum=0.1, affine=True, track_running_stats=True)
            (2): LeakyReLU(negative_slope=0.01)
          )
        )
        (1): Conv(
          (conv): Sequential(
            (0): Conv2d(256, 512, kernel_size=(3, 3), stride=(1, 1), padding=(1, 1), bias=False)
            (1): BatchNorm2d(512, eps=1e-05, momentum=0.1, affine=True, track_running_stats=True)
            (2): LeakyReLU(negative_slope=0.01)
          )
        )
        (2): Conv(
          (conv): Sequential(
            (0): Conv2d(512, 256, kernel_size=(1, 1), stride=(1, 1), bias=False)
            (1): BatchNorm2d(256, eps=1e-05, momentum=0.1, affine=True, track_running_stats=True)
            (2): LeakyReLU(negative_slope=0.01)
          )
        )
        (3): Conv(
          (conv): Sequential(
            (0): Conv2d(256, 512, kernel_size=(3, 3), stride=(1, 1), padding=(1, 1), bias=False)
            (1): BatchNorm2d(512, eps=1e-05, momentum=0.1, affine=True, track_running_stats=True)
            (2): LeakyReLU(negative_slope=0.01)
          )
        )
        (4): Conv(
          (conv): Sequential(
            (0): Conv2d(512, 256, kernel_size=(1, 1), stride=(1, 1), bias=False)
            (1): BatchNorm2d(256, eps=1e-05, momentum=0.1, affine=True, track_running_stats=True)
            (2): LeakyReLU(negative_slope=0.01)
          )
        )
      )
      (downstream_conv3): Sequential(
        (0): Conv(
          (conv): Sequential(
            (0): Conv2d(256, 128, kernel_size=(1, 1), stride=(1, 1), bias=False)
            (1): BatchNorm2d(128, eps=1e-05, momentum=0.1, affine=True, track_running_stats=True)
            (2): LeakyReLU(negative_slope=0.01)
          )
        )
        (1): Conv(
          (conv): Sequential(
            (0): Conv2d(128, 256, kernel_size=(3, 3), stride=(1, 1), padding=(1, 1), bias=False)
            (1): BatchNorm2d(256, eps=1e-05, momentum=0.1, affine=True, track_running_stats=True)
            (2): LeakyReLU(negative_slope=0.01)
          )
        )
        (2): Conv(
          (conv): Sequential(
            (0): Conv2d(256, 128, kernel_size=(1, 1), stride=(1, 1), bias=False)
            (1): BatchNorm2d(128, eps=1e-05, momentum=0.1, affine=True, track_running_stats=True)
            (2): LeakyReLU(negative_slope=0.01)
          )
        )
        (3): Conv(
          (conv): Sequential(
            (0): Conv2d(128, 256, kernel_size=(3, 3), stride=(1, 1), padding=(1, 1), bias=False)
            (1): BatchNorm2d(256, eps=1e-05, momentum=0.1, affine=True, track_running_stats=True)
            (2): LeakyReLU(negative_slope=0.01)
          )
        )
        (4): Conv(
          (conv): Sequential(
            (0): Conv2d(256, 128, kernel_size=(1, 1), stride=(1, 1), bias=False)
            (1): BatchNorm2d(128, eps=1e-05, momentum=0.1, affine=True, track_running_stats=True)
            (2): LeakyReLU(negative_slope=0.01)
          )
        )
      )
      (upstream_conv4): Sequential(
        (0): Conv(
          (conv): Sequential(
            (0): Conv2d(512, 256, kernel_size=(1, 1), stride=(1, 1), bias=False)
            (1): BatchNorm2d(256, eps=1e-05, momentum=0.1, affine=True, track_running_stats=True)
            (2): LeakyReLU(negative_slope=0.01)
          )
        )
        (1): Conv(
          (conv): Sequential(
            (0): Conv2d(256, 512, kernel_size=(3, 3), stride=(1, 1), padding=(1, 1), bias=False)
            (1): BatchNorm2d(512, eps=1e-05, momentum=0.1, affine=True, track_running_stats=True)
            (2): LeakyReLU(negative_slope=0.01)
          )
        )
        (2): Conv(
          (conv): Sequential(
            (0): Conv2d(512, 256, kernel_size=(1, 1), stride=(1, 1), bias=False)
            (1): BatchNorm2d(256, eps=1e-05, momentum=0.1, affine=True, track_running_stats=True)
            (2): LeakyReLU(negative_slope=0.01)
          )
        )
        (3): Conv(
          (conv): Sequential(
            (0): Conv2d(256, 512, kernel_size=(3, 3), stride=(1, 1), padding=(1, 1), bias=False)
            (1): BatchNorm2d(512, eps=1e-05, momentum=0.1, affine=True, track_running_stats=True)
            (2): LeakyReLU(negative_slope=0.01)
          )
        )
        (4): Conv(
          (conv): Sequential(
            (0): Conv2d(512, 256, kernel_size=(1, 1), stride=(1, 1), bias=False)
            (1): BatchNorm2d(256, eps=1e-05, momentum=0.1, affine=True, track_running_stats=True)
            (2): LeakyReLU(negative_slope=0.01)
          )
        )
      )
      (upstream_conv5): Sequential(
        (0): Conv(
          (conv): Sequential(
            (0): Conv2d(1024, 512, kernel_size=(1, 1), stride=(1, 1), bias=False)
            (1): BatchNorm2d(512, eps=1e-05, momentum=0.1, affine=True, track_running_stats=True)
            (2): LeakyReLU(negative_slope=0.01)
          )
        )
        (1): Conv(
          (conv): Sequential(
            (0): Conv2d(512, 1024, kernel_size=(3, 3), stride=(1, 1), padding=(1, 1), bias=False)
            (1): BatchNorm2d(1024, eps=1e-05, momentum=0.1, affine=True, track_running_stats=True)
            (2): LeakyReLU(negative_slope=0.01)
          )
        )
        (2): Conv(
          (conv): Sequential(
            (0): Conv2d(1024, 512, kernel_size=(1, 1), stride=(1, 1), bias=False)
            (1): BatchNorm2d(512, eps=1e-05, momentum=0.1, affine=True, track_running_stats=True)
            (2): LeakyReLU(negative_slope=0.01)
          )
        )
        (3): Conv(
          (conv): Sequential(
            (0): Conv2d(512, 1024, kernel_size=(3, 3), stride=(1, 1), padding=(1, 1), bias=False)
            (1): BatchNorm2d(1024, eps=1e-05, momentum=0.1, affine=True, track_running_stats=True)
            (2): LeakyReLU(negative_slope=0.01)
          )
        )
        (4): Conv(
          (conv): Sequential(
            (0): Conv2d(1024, 512, kernel_size=(1, 1), stride=(1, 1), bias=False)
            (1): BatchNorm2d(512, eps=1e-05, momentum=0.1, affine=True, track_running_stats=True)
            (2): LeakyReLU(negative_slope=0.01)
          )
        )
      )
    )
    (predict_net): PredictNet(
      (predict_conv): ModuleList(
        (0): Sequential(
          (0): Conv(
            (conv): Sequential(
              (0): Conv2d(128, 256, kernel_size=(3, 3), stride=(1, 1), padding=(1, 1), bias=False)
              (1): BatchNorm2d(256, eps=1e-05, momentum=0.1, affine=True, track_running_stats=True)
              (2): LeakyReLU(negative_slope=0.01)
            )
          )
          (1): Conv2d(256, 75, kernel_size=(1, 1), stride=(1, 1))
        )
        (1): Sequential(
          (0): Conv(
            (conv): Sequential(
              (0): Conv2d(256, 512, kernel_size=(3, 3), stride=(1, 1), padding=(1, 1), bias=False)
              (1): BatchNorm2d(512, eps=1e-05, momentum=0.1, affine=True, track_running_stats=True)
              (2): LeakyReLU(negative_slope=0.01)
            )
          )
          (1): Conv2d(512, 75, kernel_size=(1, 1), stride=(1, 1))
        )
        (2): Sequential(
          (0): Conv(
            (conv): Sequential(
              (0): Conv2d(512, 1024, kernel_size=(3, 3), stride=(1, 1), padding=(1, 1), bias=False)
              (1): BatchNorm2d(1024, eps=1e-05, momentum=0.1, affine=True, track_running_stats=True)
              (2): LeakyReLU(negative_slope=0.01)
            )
          )
          (1): Conv2d(1024, 75, kernel_size=(1, 1), stride=(1, 1))
        )
      )
    )
  )
  (_Build_Model__head_s): Yolo_head()
  (_Build_Model__head_m): Yolo_head()
  (_Build_Model__head_l): Yolo_head()
) 
[2021-07-01 14:45:01,057]-[train.py line:154]:Train datasets number is : 16551 
[2021-07-01 14:45:01,057]-[train.py line:162]:        =======  start  training   ======      
[2021-07-01 14:45:01,059]-[train.py line:168]:===Epoch:[0/50]=== 
[2021-07-01 14:47:22,223]-[train.py line:149]:Training start,img size is: 608,batchsize is: 1,work number is 4 
[2021-07-01 14:47:22,224]-[train.py line:152]:Build_Model(
  (_Build_Model__yolov4): YOLOv4(
    (backbone): CSPDarknet53(
      (stem_conv): Convolutional(
        (_Convolutional__conv): Conv2d(3, 32, kernel_size=(3, 3), stride=(1, 1), padding=(1, 1), bias=False)
        (_Convolutional__norm): BatchNorm2d(32, eps=1e-05, momentum=0.1, affine=True, track_running_stats=True)
        (_Convolutional__activate): Mish()
      )
      (stages): ModuleList(
        (0): CSPFirstStage(
          (downsample_conv): Convolutional(
            (_Convolutional__conv): Conv2d(32, 64, kernel_size=(3, 3), stride=(2, 2), padding=(1, 1), bias=False)
            (_Convolutional__norm): BatchNorm2d(64, eps=1e-05, momentum=0.1, affine=True, track_running_stats=True)
            (_Convolutional__activate): Mish()
          )
          (split_conv0): Convolutional(
            (_Convolutional__conv): Conv2d(64, 64, kernel_size=(1, 1), stride=(1, 1), bias=False)
            (_Convolutional__norm): BatchNorm2d(64, eps=1e-05, momentum=0.1, affine=True, track_running_stats=True)
            (_Convolutional__activate): Mish()
          )
          (split_conv1): Convolutional(
            (_Convolutional__conv): Conv2d(64, 64, kernel_size=(1, 1), stride=(1, 1), bias=False)
            (_Convolutional__norm): BatchNorm2d(64, eps=1e-05, momentum=0.1, affine=True, track_running_stats=True)
            (_Convolutional__activate): Mish()
          )
          (blocks_conv): Sequential(
            (0): CSPBlock(
              (block): Sequential(
                (0): Convolutional(
                  (_Convolutional__conv): Conv2d(64, 32, kernel_size=(1, 1), stride=(1, 1), bias=False)
                  (_Convolutional__norm): BatchNorm2d(32, eps=1e-05, momentum=0.1, affine=True, track_running_stats=True)
                  (_Convolutional__activate): Mish()
                )
                (1): Convolutional(
                  (_Convolutional__conv): Conv2d(32, 64, kernel_size=(3, 3), stride=(1, 1), padding=(1, 1), bias=False)
                  (_Convolutional__norm): BatchNorm2d(64, eps=1e-05, momentum=0.1, affine=True, track_running_stats=True)
                  (_Convolutional__activate): Mish()
                )
              )
              (activation): Identity()
              (attention_module): ShuffleAttention(
                (avg_pool): AdaptiveAvgPool2d(output_size=1)
                (gn): GroupNorm(4, 4, eps=1e-05, affine=True)
                (sigmoid): Sigmoid()
              )
            )
            (1): Convolutional(
              (_Convolutional__conv): Conv2d(64, 64, kernel_size=(1, 1), stride=(1, 1), bias=False)
              (_Convolutional__norm): BatchNorm2d(64, eps=1e-05, momentum=0.1, affine=True, track_running_stats=True)
              (_Convolutional__activate): Mish()
            )
          )
          (concat_conv): Convolutional(
            (_Convolutional__conv): Conv2d(128, 64, kernel_size=(1, 1), stride=(1, 1), bias=False)
            (_Convolutional__norm): BatchNorm2d(64, eps=1e-05, momentum=0.1, affine=True, track_running_stats=True)
            (_Convolutional__activate): Mish()
          )
        )
        (1): CSPStage(
          (downsample_conv): Convolutional(
            (_Convolutional__conv): Conv2d(64, 128, kernel_size=(3, 3), stride=(2, 2), padding=(1, 1), bias=False)
            (_Convolutional__norm): BatchNorm2d(128, eps=1e-05, momentum=0.1, affine=True, track_running_stats=True)
            (_Convolutional__activate): Mish()
          )
          (split_conv0): Convolutional(
            (_Convolutional__conv): Conv2d(128, 64, kernel_size=(1, 1), stride=(1, 1), bias=False)
            (_Convolutional__norm): BatchNorm2d(64, eps=1e-05, momentum=0.1, affine=True, track_running_stats=True)
            (_Convolutional__activate): Mish()
          )
          (split_conv1): Convolutional(
            (_Convolutional__conv): Conv2d(128, 64, kernel_size=(1, 1), stride=(1, 1), bias=False)
            (_Convolutional__norm): BatchNorm2d(64, eps=1e-05, momentum=0.1, affine=True, track_running_stats=True)
            (_Convolutional__activate): Mish()
          )
          (blocks_conv): Sequential(
            (0): CSPBlock(
              (block): Sequential(
                (0): Convolutional(
                  (_Convolutional__conv): Conv2d(64, 64, kernel_size=(1, 1), stride=(1, 1), bias=False)
                  (_Convolutional__norm): BatchNorm2d(64, eps=1e-05, momentum=0.1, affine=True, track_running_stats=True)
                  (_Convolutional__activate): Mish()
                )
                (1): Convolutional(
                  (_Convolutional__conv): Conv2d(64, 64, kernel_size=(3, 3), stride=(1, 1), padding=(1, 1), bias=False)
                  (_Convolutional__norm): BatchNorm2d(64, eps=1e-05, momentum=0.1, affine=True, track_running_stats=True)
                  (_Convolutional__activate): Mish()
                )
              )
              (activation): Identity()
              (attention_module): ShuffleAttention(
                (avg_pool): AdaptiveAvgPool2d(output_size=1)
                (gn): GroupNorm(4, 4, eps=1e-05, affine=True)
                (sigmoid): Sigmoid()
              )
            )
            (1): CSPBlock(
              (block): Sequential(
                (0): Convolutional(
                  (_Convolutional__conv): Conv2d(64, 64, kernel_size=(1, 1), stride=(1, 1), bias=False)
                  (_Convolutional__norm): BatchNorm2d(64, eps=1e-05, momentum=0.1, affine=True, track_running_stats=True)
                  (_Convolutional__activate): Mish()
                )
                (1): Convolutional(
                  (_Convolutional__conv): Conv2d(64, 64, kernel_size=(3, 3), stride=(1, 1), padding=(1, 1), bias=False)
                  (_Convolutional__norm): BatchNorm2d(64, eps=1e-05, momentum=0.1, affine=True, track_running_stats=True)
                  (_Convolutional__activate): Mish()
                )
              )
              (activation): Identity()
              (attention_module): ShuffleAttention(
                (avg_pool): AdaptiveAvgPool2d(output_size=1)
                (gn): GroupNorm(4, 4, eps=1e-05, affine=True)
                (sigmoid): Sigmoid()
              )
            )
            (2): Convolutional(
              (_Convolutional__conv): Conv2d(64, 64, kernel_size=(1, 1), stride=(1, 1), bias=False)
              (_Convolutional__norm): BatchNorm2d(64, eps=1e-05, momentum=0.1, affine=True, track_running_stats=True)
              (_Convolutional__activate): Mish()
            )
          )
          (concat_conv): Convolutional(
            (_Convolutional__conv): Conv2d(128, 128, kernel_size=(1, 1), stride=(1, 1), bias=False)
            (_Convolutional__norm): BatchNorm2d(128, eps=1e-05, momentum=0.1, affine=True, track_running_stats=True)
            (_Convolutional__activate): Mish()
          )
        )
        (2): CSPStage(
          (downsample_conv): Convolutional(
            (_Convolutional__conv): Conv2d(128, 256, kernel_size=(3, 3), stride=(2, 2), padding=(1, 1), bias=False)
            (_Convolutional__norm): BatchNorm2d(256, eps=1e-05, momentum=0.1, affine=True, track_running_stats=True)
            (_Convolutional__activate): Mish()
          )
          (split_conv0): Convolutional(
            (_Convolutional__conv): Conv2d(256, 128, kernel_size=(1, 1), stride=(1, 1), bias=False)
            (_Convolutional__norm): BatchNorm2d(128, eps=1e-05, momentum=0.1, affine=True, track_running_stats=True)
            (_Convolutional__activate): Mish()
          )
          (split_conv1): Convolutional(
            (_Convolutional__conv): Conv2d(256, 128, kernel_size=(1, 1), stride=(1, 1), bias=False)
            (_Convolutional__norm): BatchNorm2d(128, eps=1e-05, momentum=0.1, affine=True, track_running_stats=True)
            (_Convolutional__activate): Mish()
          )
          (blocks_conv): Sequential(
            (0): CSPBlock(
              (block): Sequential(
                (0): Convolutional(
                  (_Convolutional__conv): Conv2d(128, 128, kernel_size=(1, 1), stride=(1, 1), bias=False)
                  (_Convolutional__norm): BatchNorm2d(128, eps=1e-05, momentum=0.1, affine=True, track_running_stats=True)
                  (_Convolutional__activate): Mish()
                )
                (1): Convolutional(
                  (_Convolutional__conv): Conv2d(128, 128, kernel_size=(3, 3), stride=(1, 1), padding=(1, 1), bias=False)
                  (_Convolutional__norm): BatchNorm2d(128, eps=1e-05, momentum=0.1, affine=True, track_running_stats=True)
                  (_Convolutional__activate): Mish()
                )
              )
              (activation): Identity()
              (attention_module): ShuffleAttention(
                (avg_pool): AdaptiveAvgPool2d(output_size=1)
                (gn): GroupNorm(8, 8, eps=1e-05, affine=True)
                (sigmoid): Sigmoid()
              )
            )
            (1): CSPBlock(
              (block): Sequential(
                (0): Convolutional(
                  (_Convolutional__conv): Conv2d(128, 128, kernel_size=(1, 1), stride=(1, 1), bias=False)
                  (_Convolutional__norm): BatchNorm2d(128, eps=1e-05, momentum=0.1, affine=True, track_running_stats=True)
                  (_Convolutional__activate): Mish()
                )
                (1): Convolutional(
                  (_Convolutional__conv): Conv2d(128, 128, kernel_size=(3, 3), stride=(1, 1), padding=(1, 1), bias=False)
                  (_Convolutional__norm): BatchNorm2d(128, eps=1e-05, momentum=0.1, affine=True, track_running_stats=True)
                  (_Convolutional__activate): Mish()
                )
              )
              (activation): Identity()
              (attention_module): ShuffleAttention(
                (avg_pool): AdaptiveAvgPool2d(output_size=1)
                (gn): GroupNorm(8, 8, eps=1e-05, affine=True)
                (sigmoid): Sigmoid()
              )
            )
            (2): CSPBlock(
              (block): Sequential(
                (0): Convolutional(
                  (_Convolutional__conv): Conv2d(128, 128, kernel_size=(1, 1), stride=(1, 1), bias=False)
                  (_Convolutional__norm): BatchNorm2d(128, eps=1e-05, momentum=0.1, affine=True, track_running_stats=True)
                  (_Convolutional__activate): Mish()
                )
                (1): Convolutional(
                  (_Convolutional__conv): Conv2d(128, 128, kernel_size=(3, 3), stride=(1, 1), padding=(1, 1), bias=False)
                  (_Convolutional__norm): BatchNorm2d(128, eps=1e-05, momentum=0.1, affine=True, track_running_stats=True)
                  (_Convolutional__activate): Mish()
                )
              )
              (activation): Identity()
              (attention_module): ShuffleAttention(
                (avg_pool): AdaptiveAvgPool2d(output_size=1)
                (gn): GroupNorm(8, 8, eps=1e-05, affine=True)
                (sigmoid): Sigmoid()
              )
            )
            (3): CSPBlock(
              (block): Sequential(
                (0): Convolutional(
                  (_Convolutional__conv): Conv2d(128, 128, kernel_size=(1, 1), stride=(1, 1), bias=False)
                  (_Convolutional__norm): BatchNorm2d(128, eps=1e-05, momentum=0.1, affine=True, track_running_stats=True)
                  (_Convolutional__activate): Mish()
                )
                (1): Convolutional(
                  (_Convolutional__conv): Conv2d(128, 128, kernel_size=(3, 3), stride=(1, 1), padding=(1, 1), bias=False)
                  (_Convolutional__norm): BatchNorm2d(128, eps=1e-05, momentum=0.1, affine=True, track_running_stats=True)
                  (_Convolutional__activate): Mish()
                )
              )
              (activation): Identity()
              (attention_module): ShuffleAttention(
                (avg_pool): AdaptiveAvgPool2d(output_size=1)
                (gn): GroupNorm(8, 8, eps=1e-05, affine=True)
                (sigmoid): Sigmoid()
              )
            )
            (4): CSPBlock(
              (block): Sequential(
                (0): Convolutional(
                  (_Convolutional__conv): Conv2d(128, 128, kernel_size=(1, 1), stride=(1, 1), bias=False)
                  (_Convolutional__norm): BatchNorm2d(128, eps=1e-05, momentum=0.1, affine=True, track_running_stats=True)
                  (_Convolutional__activate): Mish()
                )
                (1): Convolutional(
                  (_Convolutional__conv): Conv2d(128, 128, kernel_size=(3, 3), stride=(1, 1), padding=(1, 1), bias=False)
                  (_Convolutional__norm): BatchNorm2d(128, eps=1e-05, momentum=0.1, affine=True, track_running_stats=True)
                  (_Convolutional__activate): Mish()
                )
              )
              (activation): Identity()
              (attention_module): ShuffleAttention(
                (avg_pool): AdaptiveAvgPool2d(output_size=1)
                (gn): GroupNorm(8, 8, eps=1e-05, affine=True)
                (sigmoid): Sigmoid()
              )
            )
            (5): CSPBlock(
              (block): Sequential(
                (0): Convolutional(
                  (_Convolutional__conv): Conv2d(128, 128, kernel_size=(1, 1), stride=(1, 1), bias=False)
                  (_Convolutional__norm): BatchNorm2d(128, eps=1e-05, momentum=0.1, affine=True, track_running_stats=True)
                  (_Convolutional__activate): Mish()
                )
                (1): Convolutional(
                  (_Convolutional__conv): Conv2d(128, 128, kernel_size=(3, 3), stride=(1, 1), padding=(1, 1), bias=False)
                  (_Convolutional__norm): BatchNorm2d(128, eps=1e-05, momentum=0.1, affine=True, track_running_stats=True)
                  (_Convolutional__activate): Mish()
                )
              )
              (activation): Identity()
              (attention_module): ShuffleAttention(
                (avg_pool): AdaptiveAvgPool2d(output_size=1)
                (gn): GroupNorm(8, 8, eps=1e-05, affine=True)
                (sigmoid): Sigmoid()
              )
            )
            (6): CSPBlock(
              (block): Sequential(
                (0): Convolutional(
                  (_Convolutional__conv): Conv2d(128, 128, kernel_size=(1, 1), stride=(1, 1), bias=False)
                  (_Convolutional__norm): BatchNorm2d(128, eps=1e-05, momentum=0.1, affine=True, track_running_stats=True)
                  (_Convolutional__activate): Mish()
                )
                (1): Convolutional(
                  (_Convolutional__conv): Conv2d(128, 128, kernel_size=(3, 3), stride=(1, 1), padding=(1, 1), bias=False)
                  (_Convolutional__norm): BatchNorm2d(128, eps=1e-05, momentum=0.1, affine=True, track_running_stats=True)
                  (_Convolutional__activate): Mish()
                )
              )
              (activation): Identity()
              (attention_module): ShuffleAttention(
                (avg_pool): AdaptiveAvgPool2d(output_size=1)
                (gn): GroupNorm(8, 8, eps=1e-05, affine=True)
                (sigmoid): Sigmoid()
              )
            )
            (7): CSPBlock(
              (block): Sequential(
                (0): Convolutional(
                  (_Convolutional__conv): Conv2d(128, 128, kernel_size=(1, 1), stride=(1, 1), bias=False)
                  (_Convolutional__norm): BatchNorm2d(128, eps=1e-05, momentum=0.1, affine=True, track_running_stats=True)
                  (_Convolutional__activate): Mish()
                )
                (1): Convolutional(
                  (_Convolutional__conv): Conv2d(128, 128, kernel_size=(3, 3), stride=(1, 1), padding=(1, 1), bias=False)
                  (_Convolutional__norm): BatchNorm2d(128, eps=1e-05, momentum=0.1, affine=True, track_running_stats=True)
                  (_Convolutional__activate): Mish()
                )
              )
              (activation): Identity()
              (attention_module): ShuffleAttention(
                (avg_pool): AdaptiveAvgPool2d(output_size=1)
                (gn): GroupNorm(8, 8, eps=1e-05, affine=True)
                (sigmoid): Sigmoid()
              )
            )
            (8): Convolutional(
              (_Convolutional__conv): Conv2d(128, 128, kernel_size=(1, 1), stride=(1, 1), bias=False)
              (_Convolutional__norm): BatchNorm2d(128, eps=1e-05, momentum=0.1, affine=True, track_running_stats=True)
              (_Convolutional__activate): Mish()
            )
          )
          (concat_conv): Convolutional(
            (_Convolutional__conv): Conv2d(256, 256, kernel_size=(1, 1), stride=(1, 1), bias=False)
            (_Convolutional__norm): BatchNorm2d(256, eps=1e-05, momentum=0.1, affine=True, track_running_stats=True)
            (_Convolutional__activate): Mish()
          )
        )
        (3): CSPStage(
          (downsample_conv): Convolutional(
            (_Convolutional__conv): Conv2d(256, 512, kernel_size=(3, 3), stride=(2, 2), padding=(1, 1), bias=False)
            (_Convolutional__norm): BatchNorm2d(512, eps=1e-05, momentum=0.1, affine=True, track_running_stats=True)
            (_Convolutional__activate): Mish()
          )
          (split_conv0): Convolutional(
            (_Convolutional__conv): Conv2d(512, 256, kernel_size=(1, 1), stride=(1, 1), bias=False)
            (_Convolutional__norm): BatchNorm2d(256, eps=1e-05, momentum=0.1, affine=True, track_running_stats=True)
            (_Convolutional__activate): Mish()
          )
          (split_conv1): Convolutional(
            (_Convolutional__conv): Conv2d(512, 256, kernel_size=(1, 1), stride=(1, 1), bias=False)
            (_Convolutional__norm): BatchNorm2d(256, eps=1e-05, momentum=0.1, affine=True, track_running_stats=True)
            (_Convolutional__activate): Mish()
          )
          (blocks_conv): Sequential(
            (0): CSPBlock(
              (block): Sequential(
                (0): Convolutional(
                  (_Convolutional__conv): Conv2d(256, 256, kernel_size=(1, 1), stride=(1, 1), bias=False)
                  (_Convolutional__norm): BatchNorm2d(256, eps=1e-05, momentum=0.1, affine=True, track_running_stats=True)
                  (_Convolutional__activate): Mish()
                )
                (1): Convolutional(
                  (_Convolutional__conv): Conv2d(256, 256, kernel_size=(3, 3), stride=(1, 1), padding=(1, 1), bias=False)
                  (_Convolutional__norm): BatchNorm2d(256, eps=1e-05, momentum=0.1, affine=True, track_running_stats=True)
                  (_Convolutional__activate): Mish()
                )
              )
              (activation): Identity()
              (attention_module): ShuffleAttention(
                (avg_pool): AdaptiveAvgPool2d(output_size=1)
                (gn): GroupNorm(16, 16, eps=1e-05, affine=True)
                (sigmoid): Sigmoid()
              )
            )
            (1): CSPBlock(
              (block): Sequential(
                (0): Convolutional(
                  (_Convolutional__conv): Conv2d(256, 256, kernel_size=(1, 1), stride=(1, 1), bias=False)
                  (_Convolutional__norm): BatchNorm2d(256, eps=1e-05, momentum=0.1, affine=True, track_running_stats=True)
                  (_Convolutional__activate): Mish()
                )
                (1): Convolutional(
                  (_Convolutional__conv): Conv2d(256, 256, kernel_size=(3, 3), stride=(1, 1), padding=(1, 1), bias=False)
                  (_Convolutional__norm): BatchNorm2d(256, eps=1e-05, momentum=0.1, affine=True, track_running_stats=True)
                  (_Convolutional__activate): Mish()
                )
              )
              (activation): Identity()
              (attention_module): ShuffleAttention(
                (avg_pool): AdaptiveAvgPool2d(output_size=1)
                (gn): GroupNorm(16, 16, eps=1e-05, affine=True)
                (sigmoid): Sigmoid()
              )
            )
            (2): CSPBlock(
              (block): Sequential(
                (0): Convolutional(
                  (_Convolutional__conv): Conv2d(256, 256, kernel_size=(1, 1), stride=(1, 1), bias=False)
                  (_Convolutional__norm): BatchNorm2d(256, eps=1e-05, momentum=0.1, affine=True, track_running_stats=True)
                  (_Convolutional__activate): Mish()
                )
                (1): Convolutional(
                  (_Convolutional__conv): Conv2d(256, 256, kernel_size=(3, 3), stride=(1, 1), padding=(1, 1), bias=False)
                  (_Convolutional__norm): BatchNorm2d(256, eps=1e-05, momentum=0.1, affine=True, track_running_stats=True)
                  (_Convolutional__activate): Mish()
                )
              )
              (activation): Identity()
              (attention_module): ShuffleAttention(
                (avg_pool): AdaptiveAvgPool2d(output_size=1)
                (gn): GroupNorm(16, 16, eps=1e-05, affine=True)
                (sigmoid): Sigmoid()
              )
            )
            (3): CSPBlock(
              (block): Sequential(
                (0): Convolutional(
                  (_Convolutional__conv): Conv2d(256, 256, kernel_size=(1, 1), stride=(1, 1), bias=False)
                  (_Convolutional__norm): BatchNorm2d(256, eps=1e-05, momentum=0.1, affine=True, track_running_stats=True)
                  (_Convolutional__activate): Mish()
                )
                (1): Convolutional(
                  (_Convolutional__conv): Conv2d(256, 256, kernel_size=(3, 3), stride=(1, 1), padding=(1, 1), bias=False)
                  (_Convolutional__norm): BatchNorm2d(256, eps=1e-05, momentum=0.1, affine=True, track_running_stats=True)
                  (_Convolutional__activate): Mish()
                )
              )
              (activation): Identity()
              (attention_module): ShuffleAttention(
                (avg_pool): AdaptiveAvgPool2d(output_size=1)
                (gn): GroupNorm(16, 16, eps=1e-05, affine=True)
                (sigmoid): Sigmoid()
              )
            )
            (4): CSPBlock(
              (block): Sequential(
                (0): Convolutional(
                  (_Convolutional__conv): Conv2d(256, 256, kernel_size=(1, 1), stride=(1, 1), bias=False)
                  (_Convolutional__norm): BatchNorm2d(256, eps=1e-05, momentum=0.1, affine=True, track_running_stats=True)
                  (_Convolutional__activate): Mish()
                )
                (1): Convolutional(
                  (_Convolutional__conv): Conv2d(256, 256, kernel_size=(3, 3), stride=(1, 1), padding=(1, 1), bias=False)
                  (_Convolutional__norm): BatchNorm2d(256, eps=1e-05, momentum=0.1, affine=True, track_running_stats=True)
                  (_Convolutional__activate): Mish()
                )
              )
              (activation): Identity()
              (attention_module): ShuffleAttention(
                (avg_pool): AdaptiveAvgPool2d(output_size=1)
                (gn): GroupNorm(16, 16, eps=1e-05, affine=True)
                (sigmoid): Sigmoid()
              )
            )
            (5): CSPBlock(
              (block): Sequential(
                (0): Convolutional(
                  (_Convolutional__conv): Conv2d(256, 256, kernel_size=(1, 1), stride=(1, 1), bias=False)
                  (_Convolutional__norm): BatchNorm2d(256, eps=1e-05, momentum=0.1, affine=True, track_running_stats=True)
                  (_Convolutional__activate): Mish()
                )
                (1): Convolutional(
                  (_Convolutional__conv): Conv2d(256, 256, kernel_size=(3, 3), stride=(1, 1), padding=(1, 1), bias=False)
                  (_Convolutional__norm): BatchNorm2d(256, eps=1e-05, momentum=0.1, affine=True, track_running_stats=True)
                  (_Convolutional__activate): Mish()
                )
              )
              (activation): Identity()
              (attention_module): ShuffleAttention(
                (avg_pool): AdaptiveAvgPool2d(output_size=1)
                (gn): GroupNorm(16, 16, eps=1e-05, affine=True)
                (sigmoid): Sigmoid()
              )
            )
            (6): CSPBlock(
              (block): Sequential(
                (0): Convolutional(
                  (_Convolutional__conv): Conv2d(256, 256, kernel_size=(1, 1), stride=(1, 1), bias=False)
                  (_Convolutional__norm): BatchNorm2d(256, eps=1e-05, momentum=0.1, affine=True, track_running_stats=True)
                  (_Convolutional__activate): Mish()
                )
                (1): Convolutional(
                  (_Convolutional__conv): Conv2d(256, 256, kernel_size=(3, 3), stride=(1, 1), padding=(1, 1), bias=False)
                  (_Convolutional__norm): BatchNorm2d(256, eps=1e-05, momentum=0.1, affine=True, track_running_stats=True)
                  (_Convolutional__activate): Mish()
                )
              )
              (activation): Identity()
              (attention_module): ShuffleAttention(
                (avg_pool): AdaptiveAvgPool2d(output_size=1)
                (gn): GroupNorm(16, 16, eps=1e-05, affine=True)
                (sigmoid): Sigmoid()
              )
            )
            (7): CSPBlock(
              (block): Sequential(
                (0): Convolutional(
                  (_Convolutional__conv): Conv2d(256, 256, kernel_size=(1, 1), stride=(1, 1), bias=False)
                  (_Convolutional__norm): BatchNorm2d(256, eps=1e-05, momentum=0.1, affine=True, track_running_stats=True)
                  (_Convolutional__activate): Mish()
                )
                (1): Convolutional(
                  (_Convolutional__conv): Conv2d(256, 256, kernel_size=(3, 3), stride=(1, 1), padding=(1, 1), bias=False)
                  (_Convolutional__norm): BatchNorm2d(256, eps=1e-05, momentum=0.1, affine=True, track_running_stats=True)
                  (_Convolutional__activate): Mish()
                )
              )
              (activation): Identity()
              (attention_module): ShuffleAttention(
                (avg_pool): AdaptiveAvgPool2d(output_size=1)
                (gn): GroupNorm(16, 16, eps=1e-05, affine=True)
                (sigmoid): Sigmoid()
              )
            )
            (8): Convolutional(
              (_Convolutional__conv): Conv2d(256, 256, kernel_size=(1, 1), stride=(1, 1), bias=False)
              (_Convolutional__norm): BatchNorm2d(256, eps=1e-05, momentum=0.1, affine=True, track_running_stats=True)
              (_Convolutional__activate): Mish()
            )
          )
          (concat_conv): Convolutional(
            (_Convolutional__conv): Conv2d(512, 512, kernel_size=(1, 1), stride=(1, 1), bias=False)
            (_Convolutional__norm): BatchNorm2d(512, eps=1e-05, momentum=0.1, affine=True, track_running_stats=True)
            (_Convolutional__activate): Mish()
          )
        )
        (4): CSPStage(
          (downsample_conv): Convolutional(
            (_Convolutional__conv): Conv2d(512, 1024, kernel_size=(3, 3), stride=(2, 2), padding=(1, 1), bias=False)
            (_Convolutional__norm): BatchNorm2d(1024, eps=1e-05, momentum=0.1, affine=True, track_running_stats=True)
            (_Convolutional__activate): Mish()
          )
          (split_conv0): Convolutional(
            (_Convolutional__conv): Conv2d(1024, 512, kernel_size=(1, 1), stride=(1, 1), bias=False)
            (_Convolutional__norm): BatchNorm2d(512, eps=1e-05, momentum=0.1, affine=True, track_running_stats=True)
            (_Convolutional__activate): Mish()
          )
          (split_conv1): Convolutional(
            (_Convolutional__conv): Conv2d(1024, 512, kernel_size=(1, 1), stride=(1, 1), bias=False)
            (_Convolutional__norm): BatchNorm2d(512, eps=1e-05, momentum=0.1, affine=True, track_running_stats=True)
            (_Convolutional__activate): Mish()
          )
          (blocks_conv): Sequential(
            (0): CSPBlock(
              (block): Sequential(
                (0): Convolutional(
                  (_Convolutional__conv): Conv2d(512, 512, kernel_size=(1, 1), stride=(1, 1), bias=False)
                  (_Convolutional__norm): BatchNorm2d(512, eps=1e-05, momentum=0.1, affine=True, track_running_stats=True)
                  (_Convolutional__activate): Mish()
                )
                (1): Convolutional(
                  (_Convolutional__conv): Conv2d(512, 512, kernel_size=(3, 3), stride=(1, 1), padding=(1, 1), bias=False)
                  (_Convolutional__norm): BatchNorm2d(512, eps=1e-05, momentum=0.1, affine=True, track_running_stats=True)
                  (_Convolutional__activate): Mish()
                )
              )
              (activation): Identity()
              (attention_module): ShuffleAttention(
                (avg_pool): AdaptiveAvgPool2d(output_size=1)
                (gn): GroupNorm(32, 32, eps=1e-05, affine=True)
                (sigmoid): Sigmoid()
              )
            )
            (1): CSPBlock(
              (block): Sequential(
                (0): Convolutional(
                  (_Convolutional__conv): Conv2d(512, 512, kernel_size=(1, 1), stride=(1, 1), bias=False)
                  (_Convolutional__norm): BatchNorm2d(512, eps=1e-05, momentum=0.1, affine=True, track_running_stats=True)
                  (_Convolutional__activate): Mish()
                )
                (1): Convolutional(
                  (_Convolutional__conv): Conv2d(512, 512, kernel_size=(3, 3), stride=(1, 1), padding=(1, 1), bias=False)
                  (_Convolutional__norm): BatchNorm2d(512, eps=1e-05, momentum=0.1, affine=True, track_running_stats=True)
                  (_Convolutional__activate): Mish()
                )
              )
              (activation): Identity()
              (attention_module): ShuffleAttention(
                (avg_pool): AdaptiveAvgPool2d(output_size=1)
                (gn): GroupNorm(32, 32, eps=1e-05, affine=True)
                (sigmoid): Sigmoid()
              )
            )
            (2): CSPBlock(
              (block): Sequential(
                (0): Convolutional(
                  (_Convolutional__conv): Conv2d(512, 512, kernel_size=(1, 1), stride=(1, 1), bias=False)
                  (_Convolutional__norm): BatchNorm2d(512, eps=1e-05, momentum=0.1, affine=True, track_running_stats=True)
                  (_Convolutional__activate): Mish()
                )
                (1): Convolutional(
                  (_Convolutional__conv): Conv2d(512, 512, kernel_size=(3, 3), stride=(1, 1), padding=(1, 1), bias=False)
                  (_Convolutional__norm): BatchNorm2d(512, eps=1e-05, momentum=0.1, affine=True, track_running_stats=True)
                  (_Convolutional__activate): Mish()
                )
              )
              (activation): Identity()
              (attention_module): ShuffleAttention(
                (avg_pool): AdaptiveAvgPool2d(output_size=1)
                (gn): GroupNorm(32, 32, eps=1e-05, affine=True)
                (sigmoid): Sigmoid()
              )
            )
            (3): CSPBlock(
              (block): Sequential(
                (0): Convolutional(
                  (_Convolutional__conv): Conv2d(512, 512, kernel_size=(1, 1), stride=(1, 1), bias=False)
                  (_Convolutional__norm): BatchNorm2d(512, eps=1e-05, momentum=0.1, affine=True, track_running_stats=True)
                  (_Convolutional__activate): Mish()
                )
                (1): Convolutional(
                  (_Convolutional__conv): Conv2d(512, 512, kernel_size=(3, 3), stride=(1, 1), padding=(1, 1), bias=False)
                  (_Convolutional__norm): BatchNorm2d(512, eps=1e-05, momentum=0.1, affine=True, track_running_stats=True)
                  (_Convolutional__activate): Mish()
                )
              )
              (activation): Identity()
              (attention_module): ShuffleAttention(
                (avg_pool): AdaptiveAvgPool2d(output_size=1)
                (gn): GroupNorm(32, 32, eps=1e-05, affine=True)
                (sigmoid): Sigmoid()
              )
            )
            (4): Convolutional(
              (_Convolutional__conv): Conv2d(512, 512, kernel_size=(1, 1), stride=(1, 1), bias=False)
              (_Convolutional__norm): BatchNorm2d(512, eps=1e-05, momentum=0.1, affine=True, track_running_stats=True)
              (_Convolutional__activate): Mish()
            )
          )
          (concat_conv): Convolutional(
            (_Convolutional__conv): Conv2d(1024, 1024, kernel_size=(1, 1), stride=(1, 1), bias=False)
            (_Convolutional__norm): BatchNorm2d(1024, eps=1e-05, momentum=0.1, affine=True, track_running_stats=True)
            (_Convolutional__activate): Mish()
          )
        )
      )
    )
    (spp): SpatialPyramidPooling(
      (head_conv): Sequential(
        (0): Conv(
          (conv): Sequential(
            (0): Conv2d(1024, 512, kernel_size=(1, 1), stride=(1, 1), bias=False)
            (1): BatchNorm2d(512, eps=1e-05, momentum=0.1, affine=True, track_running_stats=True)
            (2): LeakyReLU(negative_slope=0.01)
          )
        )
        (1): Conv(
          (conv): Sequential(
            (0): Conv2d(512, 1024, kernel_size=(3, 3), stride=(1, 1), padding=(1, 1), bias=False)
            (1): BatchNorm2d(1024, eps=1e-05, momentum=0.1, affine=True, track_running_stats=True)
            (2): LeakyReLU(negative_slope=0.01)
          )
        )
        (2): Conv(
          (conv): Sequential(
            (0): Conv2d(1024, 512, kernel_size=(1, 1), stride=(1, 1), bias=False)
            (1): BatchNorm2d(512, eps=1e-05, momentum=0.1, affine=True, track_running_stats=True)
            (2): LeakyReLU(negative_slope=0.01)
          )
        )
      )
      (maxpools): ModuleList(
        (0): MaxPool2d(kernel_size=5, stride=1, padding=2, dilation=1, ceil_mode=False)
        (1): MaxPool2d(kernel_size=9, stride=1, padding=4, dilation=1, ceil_mode=False)
        (2): MaxPool2d(kernel_size=13, stride=1, padding=6, dilation=1, ceil_mode=False)
      )
    )
    (panet): PANet(
      (feature_transform3): Conv(
        (conv): Sequential(
          (0): Conv2d(256, 128, kernel_size=(1, 1), stride=(1, 1), bias=False)
          (1): BatchNorm2d(128, eps=1e-05, momentum=0.1, affine=True, track_running_stats=True)
          (2): LeakyReLU(negative_slope=0.01)
        )
      )
      (feature_transform4): Conv(
        (conv): Sequential(
          (0): Conv2d(512, 256, kernel_size=(1, 1), stride=(1, 1), bias=False)
          (1): BatchNorm2d(256, eps=1e-05, momentum=0.1, affine=True, track_running_stats=True)
          (2): LeakyReLU(negative_slope=0.01)
        )
      )
      (resample5_4): Upsample(
        (upsample): Sequential(
          (0): Conv(
            (conv): Sequential(
              (0): Conv2d(512, 256, kernel_size=(1, 1), stride=(1, 1), bias=False)
              (1): BatchNorm2d(256, eps=1e-05, momentum=0.1, affine=True, track_running_stats=True)
              (2): LeakyReLU(negative_slope=0.01)
            )
          )
          (1): Upsample(scale_factor=2.0, mode=nearest)
        )
      )
      (resample4_3): Upsample(
        (upsample): Sequential(
          (0): Conv(
            (conv): Sequential(
              (0): Conv2d(256, 128, kernel_size=(1, 1), stride=(1, 1), bias=False)
              (1): BatchNorm2d(128, eps=1e-05, momentum=0.1, affine=True, track_running_stats=True)
              (2): LeakyReLU(negative_slope=0.01)
            )
          )
          (1): Upsample(scale_factor=2.0, mode=nearest)
        )
      )
      (resample3_4): Downsample(
        (downsample): Conv(
          (conv): Sequential(
            (0): Conv2d(128, 256, kernel_size=(3, 3), stride=(2, 2), padding=(1, 1), bias=False)
            (1): BatchNorm2d(256, eps=1e-05, momentum=0.1, affine=True, track_running_stats=True)
            (2): LeakyReLU(negative_slope=0.01)
          )
        )
      )
      (resample4_5): Downsample(
        (downsample): Conv(
          (conv): Sequential(
            (0): Conv2d(256, 512, kernel_size=(3, 3), stride=(2, 2), padding=(1, 1), bias=False)
            (1): BatchNorm2d(512, eps=1e-05, momentum=0.1, affine=True, track_running_stats=True)
            (2): LeakyReLU(negative_slope=0.01)
          )
        )
      )
      (downstream_conv5): Sequential(
        (0): Conv(
          (conv): Sequential(
            (0): Conv2d(2048, 512, kernel_size=(1, 1), stride=(1, 1), bias=False)
            (1): BatchNorm2d(512, eps=1e-05, momentum=0.1, affine=True, track_running_stats=True)
            (2): LeakyReLU(negative_slope=0.01)
          )
        )
        (1): Conv(
          (conv): Sequential(
            (0): Conv2d(512, 1024, kernel_size=(3, 3), stride=(1, 1), padding=(1, 1), bias=False)
            (1): BatchNorm2d(1024, eps=1e-05, momentum=0.1, affine=True, track_running_stats=True)
            (2): LeakyReLU(negative_slope=0.01)
          )
        )
        (2): Conv(
          (conv): Sequential(
            (0): Conv2d(1024, 512, kernel_size=(1, 1), stride=(1, 1), bias=False)
            (1): BatchNorm2d(512, eps=1e-05, momentum=0.1, affine=True, track_running_stats=True)
            (2): LeakyReLU(negative_slope=0.01)
          )
        )
      )
      (downstream_conv4): Sequential(
        (0): Conv(
          (conv): Sequential(
            (0): Conv2d(512, 256, kernel_size=(1, 1), stride=(1, 1), bias=False)
            (1): BatchNorm2d(256, eps=1e-05, momentum=0.1, affine=True, track_running_stats=True)
            (2): LeakyReLU(negative_slope=0.01)
          )
        )
        (1): Conv(
          (conv): Sequential(
            (0): Conv2d(256, 512, kernel_size=(3, 3), stride=(1, 1), padding=(1, 1), bias=False)
            (1): BatchNorm2d(512, eps=1e-05, momentum=0.1, affine=True, track_running_stats=True)
            (2): LeakyReLU(negative_slope=0.01)
          )
        )
        (2): Conv(
          (conv): Sequential(
            (0): Conv2d(512, 256, kernel_size=(1, 1), stride=(1, 1), bias=False)
            (1): BatchNorm2d(256, eps=1e-05, momentum=0.1, affine=True, track_running_stats=True)
            (2): LeakyReLU(negative_slope=0.01)
          )
        )
        (3): Conv(
          (conv): Sequential(
            (0): Conv2d(256, 512, kernel_size=(3, 3), stride=(1, 1), padding=(1, 1), bias=False)
            (1): BatchNorm2d(512, eps=1e-05, momentum=0.1, affine=True, track_running_stats=True)
            (2): LeakyReLU(negative_slope=0.01)
          )
        )
        (4): Conv(
          (conv): Sequential(
            (0): Conv2d(512, 256, kernel_size=(1, 1), stride=(1, 1), bias=False)
            (1): BatchNorm2d(256, eps=1e-05, momentum=0.1, affine=True, track_running_stats=True)
            (2): LeakyReLU(negative_slope=0.01)
          )
        )
      )
      (downstream_conv3): Sequential(
        (0): Conv(
          (conv): Sequential(
            (0): Conv2d(256, 128, kernel_size=(1, 1), stride=(1, 1), bias=False)
            (1): BatchNorm2d(128, eps=1e-05, momentum=0.1, affine=True, track_running_stats=True)
            (2): LeakyReLU(negative_slope=0.01)
          )
        )
        (1): Conv(
          (conv): Sequential(
            (0): Conv2d(128, 256, kernel_size=(3, 3), stride=(1, 1), padding=(1, 1), bias=False)
            (1): BatchNorm2d(256, eps=1e-05, momentum=0.1, affine=True, track_running_stats=True)
            (2): LeakyReLU(negative_slope=0.01)
          )
        )
        (2): Conv(
          (conv): Sequential(
            (0): Conv2d(256, 128, kernel_size=(1, 1), stride=(1, 1), bias=False)
            (1): BatchNorm2d(128, eps=1e-05, momentum=0.1, affine=True, track_running_stats=True)
            (2): LeakyReLU(negative_slope=0.01)
          )
        )
        (3): Conv(
          (conv): Sequential(
            (0): Conv2d(128, 256, kernel_size=(3, 3), stride=(1, 1), padding=(1, 1), bias=False)
            (1): BatchNorm2d(256, eps=1e-05, momentum=0.1, affine=True, track_running_stats=True)
            (2): LeakyReLU(negative_slope=0.01)
          )
        )
        (4): Conv(
          (conv): Sequential(
            (0): Conv2d(256, 128, kernel_size=(1, 1), stride=(1, 1), bias=False)
            (1): BatchNorm2d(128, eps=1e-05, momentum=0.1, affine=True, track_running_stats=True)
            (2): LeakyReLU(negative_slope=0.01)
          )
        )
      )
      (upstream_conv4): Sequential(
        (0): Conv(
          (conv): Sequential(
            (0): Conv2d(512, 256, kernel_size=(1, 1), stride=(1, 1), bias=False)
            (1): BatchNorm2d(256, eps=1e-05, momentum=0.1, affine=True, track_running_stats=True)
            (2): LeakyReLU(negative_slope=0.01)
          )
        )
        (1): Conv(
          (conv): Sequential(
            (0): Conv2d(256, 512, kernel_size=(3, 3), stride=(1, 1), padding=(1, 1), bias=False)
            (1): BatchNorm2d(512, eps=1e-05, momentum=0.1, affine=True, track_running_stats=True)
            (2): LeakyReLU(negative_slope=0.01)
          )
        )
        (2): Conv(
          (conv): Sequential(
            (0): Conv2d(512, 256, kernel_size=(1, 1), stride=(1, 1), bias=False)
            (1): BatchNorm2d(256, eps=1e-05, momentum=0.1, affine=True, track_running_stats=True)
            (2): LeakyReLU(negative_slope=0.01)
          )
        )
        (3): Conv(
          (conv): Sequential(
            (0): Conv2d(256, 512, kernel_size=(3, 3), stride=(1, 1), padding=(1, 1), bias=False)
            (1): BatchNorm2d(512, eps=1e-05, momentum=0.1, affine=True, track_running_stats=True)
            (2): LeakyReLU(negative_slope=0.01)
          )
        )
        (4): Conv(
          (conv): Sequential(
            (0): Conv2d(512, 256, kernel_size=(1, 1), stride=(1, 1), bias=False)
            (1): BatchNorm2d(256, eps=1e-05, momentum=0.1, affine=True, track_running_stats=True)
            (2): LeakyReLU(negative_slope=0.01)
          )
        )
      )
      (upstream_conv5): Sequential(
        (0): Conv(
          (conv): Sequential(
            (0): Conv2d(1024, 512, kernel_size=(1, 1), stride=(1, 1), bias=False)
            (1): BatchNorm2d(512, eps=1e-05, momentum=0.1, affine=True, track_running_stats=True)
            (2): LeakyReLU(negative_slope=0.01)
          )
        )
        (1): Conv(
          (conv): Sequential(
            (0): Conv2d(512, 1024, kernel_size=(3, 3), stride=(1, 1), padding=(1, 1), bias=False)
            (1): BatchNorm2d(1024, eps=1e-05, momentum=0.1, affine=True, track_running_stats=True)
            (2): LeakyReLU(negative_slope=0.01)
          )
        )
        (2): Conv(
          (conv): Sequential(
            (0): Conv2d(1024, 512, kernel_size=(1, 1), stride=(1, 1), bias=False)
            (1): BatchNorm2d(512, eps=1e-05, momentum=0.1, affine=True, track_running_stats=True)
            (2): LeakyReLU(negative_slope=0.01)
          )
        )
        (3): Conv(
          (conv): Sequential(
            (0): Conv2d(512, 1024, kernel_size=(3, 3), stride=(1, 1), padding=(1, 1), bias=False)
            (1): BatchNorm2d(1024, eps=1e-05, momentum=0.1, affine=True, track_running_stats=True)
            (2): LeakyReLU(negative_slope=0.01)
          )
        )
        (4): Conv(
          (conv): Sequential(
            (0): Conv2d(1024, 512, kernel_size=(1, 1), stride=(1, 1), bias=False)
            (1): BatchNorm2d(512, eps=1e-05, momentum=0.1, affine=True, track_running_stats=True)
            (2): LeakyReLU(negative_slope=0.01)
          )
        )
      )
    )
    (predict_net): PredictNet(
      (predict_conv): ModuleList(
        (0): Sequential(
          (0): Conv(
            (conv): Sequential(
              (0): Conv2d(128, 256, kernel_size=(3, 3), stride=(1, 1), padding=(1, 1), bias=False)
              (1): BatchNorm2d(256, eps=1e-05, momentum=0.1, affine=True, track_running_stats=True)
              (2): LeakyReLU(negative_slope=0.01)
            )
          )
          (1): Conv2d(256, 75, kernel_size=(1, 1), stride=(1, 1))
        )
        (1): Sequential(
          (0): Conv(
            (conv): Sequential(
              (0): Conv2d(256, 512, kernel_size=(3, 3), stride=(1, 1), padding=(1, 1), bias=False)
              (1): BatchNorm2d(512, eps=1e-05, momentum=0.1, affine=True, track_running_stats=True)
              (2): LeakyReLU(negative_slope=0.01)
            )
          )
          (1): Conv2d(512, 75, kernel_size=(1, 1), stride=(1, 1))
        )
        (2): Sequential(
          (0): Conv(
            (conv): Sequential(
              (0): Conv2d(512, 1024, kernel_size=(3, 3), stride=(1, 1), padding=(1, 1), bias=False)
              (1): BatchNorm2d(1024, eps=1e-05, momentum=0.1, affine=True, track_running_stats=True)
              (2): LeakyReLU(negative_slope=0.01)
            )
          )
          (1): Conv2d(1024, 75, kernel_size=(1, 1), stride=(1, 1))
        )
      )
    )
  )
  (_Build_Model__head_s): Yolo_head()
  (_Build_Model__head_m): Yolo_head()
  (_Build_Model__head_l): Yolo_head()
) 
[2021-07-01 14:47:22,234]-[train.py line:154]:Train datasets number is : 16551 
[2021-07-01 14:47:22,235]-[train.py line:162]:        =======  start  training   ======      
[2021-07-01 14:47:22,236]-[train.py line:168]:===Epoch:[0/50]=== 
…
[2021-07-01 15:22:37,678]-[train.py line:235]:  === Epoch:[  0/50],step:[420/16550],img_size:[480],total_loss:396.3744|loss_ciou:5.1215|loss_conf:323.3731|loss_cls:67.8799|lr:0.0000 
[2021-07-01 15:22:40,694]-[train.py line:235]:  === Epoch:[  0/50],step:[430/16550],img_size:[384],total_loss:389.2882|loss_ciou:5.1371|loss_conf:316.2571|loss_cls:67.8942|lr:0.0000 
[2021-07-05 11:22:40,486]-[train.py line:149]:Training start,img size is: 608,batchsize is: 1,work number is 4 
[2021-07-05 11:22:40,486]-[train.py line:152]:Build_Model(
  (_Build_Model__yolov4): YOLOv4(
    (backbone): SwinTransformer(
      (stage1): StageModule(
        (patch_partition): PatchMerging(
          (patch_merge): Unfold(kernel_size=4, dilation=1, padding=0, stride=4)
          (linear): Linear(in_features=48, out_features=128, bias=True)
        )
        (layers): ModuleList(
          (0): ModuleList(
            (0): SwinBlock(
              (attention_block): Residual(
                (fn): PreNorm(
                  (norm): LayerNorm((128,), eps=1e-05, elementwise_affine=True)
                  (fn): WindowAttention(
                    (to_qkv): Linear(in_features=128, out_features=384, bias=False)
                    (to_out): Linear(in_features=128, out_features=128, bias=True)
                  )
                )
              )
              (mlp_block): Residual(
                (fn): PreNorm(
                  (norm): LayerNorm((128,), eps=1e-05, elementwise_affine=True)
                  (fn): FeedForward(
                    (net): Sequential(
                      (0): Linear(in_features=128, out_features=512, bias=True)
                      (1): GELU()
                      (2): Linear(in_features=512, out_features=128, bias=True)
                    )
                  )
                )
              )
            )
            (1): SwinBlock(
              (attention_block): Residual(
                (fn): PreNorm(
                  (norm): LayerNorm((128,), eps=1e-05, elementwise_affine=True)
                  (fn): WindowAttention(
                    (cyclic_shift): CyclicShift()
                    (cyclic_back_shift): CyclicShift()
                    (to_qkv): Linear(in_features=128, out_features=384, bias=False)
                    (to_out): Linear(in_features=128, out_features=128, bias=True)
                  )
                )
              )
              (mlp_block): Residual(
                (fn): PreNorm(
                  (norm): LayerNorm((128,), eps=1e-05, elementwise_affine=True)
                  (fn): FeedForward(
                    (net): Sequential(
                      (0): Linear(in_features=128, out_features=512, bias=True)
                      (1): GELU()
                      (2): Linear(in_features=512, out_features=128, bias=True)
                    )
                  )
                )
              )
            )
          )
        )
      )
      (stage2): StageModule(
        (patch_partition): PatchMerging(
          (patch_merge): Unfold(kernel_size=2, dilation=1, padding=0, stride=2)
          (linear): Linear(in_features=512, out_features=256, bias=True)
        )
        (layers): ModuleList(
          (0): ModuleList(
            (0): SwinBlock(
              (attention_block): Residual(
                (fn): PreNorm(
                  (norm): LayerNorm((256,), eps=1e-05, elementwise_affine=True)
                  (fn): WindowAttention(
                    (to_qkv): Linear(in_features=256, out_features=768, bias=False)
                    (to_out): Linear(in_features=256, out_features=256, bias=True)
                  )
                )
              )
              (mlp_block): Residual(
                (fn): PreNorm(
                  (norm): LayerNorm((256,), eps=1e-05, elementwise_affine=True)
                  (fn): FeedForward(
                    (net): Sequential(
                      (0): Linear(in_features=256, out_features=1024, bias=True)
                      (1): GELU()
                      (2): Linear(in_features=1024, out_features=256, bias=True)
                    )
                  )
                )
              )
            )
            (1): SwinBlock(
              (attention_block): Residual(
                (fn): PreNorm(
                  (norm): LayerNorm((256,), eps=1e-05, elementwise_affine=True)
                  (fn): WindowAttention(
                    (cyclic_shift): CyclicShift()
                    (cyclic_back_shift): CyclicShift()
                    (to_qkv): Linear(in_features=256, out_features=768, bias=False)
                    (to_out): Linear(in_features=256, out_features=256, bias=True)
                  )
                )
              )
              (mlp_block): Residual(
                (fn): PreNorm(
                  (norm): LayerNorm((256,), eps=1e-05, elementwise_affine=True)
                  (fn): FeedForward(
                    (net): Sequential(
                      (0): Linear(in_features=256, out_features=1024, bias=True)
                      (1): GELU()
                      (2): Linear(in_features=1024, out_features=256, bias=True)
                    )
                  )
                )
              )
            )
          )
        )
      )
      (stage3): StageModule(
        (patch_partition): PatchMerging(
          (patch_merge): Unfold(kernel_size=2, dilation=1, padding=0, stride=2)
          (linear): Linear(in_features=1024, out_features=512, bias=True)
        )
        (layers): ModuleList(
          (0): ModuleList(
            (0): SwinBlock(
              (attention_block): Residual(
                (fn): PreNorm(
                  (norm): LayerNorm((512,), eps=1e-05, elementwise_affine=True)
                  (fn): WindowAttention(
                    (to_qkv): Linear(in_features=512, out_features=1536, bias=False)
                    (to_out): Linear(in_features=512, out_features=512, bias=True)
                  )
                )
              )
              (mlp_block): Residual(
                (fn): PreNorm(
                  (norm): LayerNorm((512,), eps=1e-05, elementwise_affine=True)
                  (fn): FeedForward(
                    (net): Sequential(
                      (0): Linear(in_features=512, out_features=2048, bias=True)
                      (1): GELU()
                      (2): Linear(in_features=2048, out_features=512, bias=True)
                    )
                  )
                )
              )
            )
            (1): SwinBlock(
              (attention_block): Residual(
                (fn): PreNorm(
                  (norm): LayerNorm((512,), eps=1e-05, elementwise_affine=True)
                  (fn): WindowAttention(
                    (cyclic_shift): CyclicShift()
                    (cyclic_back_shift): CyclicShift()
                    (to_qkv): Linear(in_features=512, out_features=1536, bias=False)
                    (to_out): Linear(in_features=512, out_features=512, bias=True)
                  )
                )
              )
              (mlp_block): Residual(
                (fn): PreNorm(
                  (norm): LayerNorm((512,), eps=1e-05, elementwise_affine=True)
                  (fn): FeedForward(
                    (net): Sequential(
                      (0): Linear(in_features=512, out_features=2048, bias=True)
                      (1): GELU()
                      (2): Linear(in_features=2048, out_features=512, bias=True)
                    )
                  )
                )
              )
            )
          )
          (1): ModuleList(
            (0): SwinBlock(
              (attention_block): Residual(
                (fn): PreNorm(
                  (norm): LayerNorm((512,), eps=1e-05, elementwise_affine=True)
                  (fn): WindowAttention(
                    (to_qkv): Linear(in_features=512, out_features=1536, bias=False)
                    (to_out): Linear(in_features=512, out_features=512, bias=True)
                  )
                )
              )
              (mlp_block): Residual(
                (fn): PreNorm(
                  (norm): LayerNorm((512,), eps=1e-05, elementwise_affine=True)
                  (fn): FeedForward(
                    (net): Sequential(
                      (0): Linear(in_features=512, out_features=2048, bias=True)
                      (1): GELU()
                      (2): Linear(in_features=2048, out_features=512, bias=True)
                    )
                  )
                )
              )
            )
            (1): SwinBlock(
              (attention_block): Residual(
                (fn): PreNorm(
                  (norm): LayerNorm((512,), eps=1e-05, elementwise_affine=True)
                  (fn): WindowAttention(
                    (cyclic_shift): CyclicShift()
                    (cyclic_back_shift): CyclicShift()
                    (to_qkv): Linear(in_features=512, out_features=1536, bias=False)
                    (to_out): Linear(in_features=512, out_features=512, bias=True)
                  )
                )
              )
              (mlp_block): Residual(
                (fn): PreNorm(
                  (norm): LayerNorm((512,), eps=1e-05, elementwise_affine=True)
                  (fn): FeedForward(
                    (net): Sequential(
                      (0): Linear(in_features=512, out_features=2048, bias=True)
                      (1): GELU()
                      (2): Linear(in_features=2048, out_features=512, bias=True)
                    )
                  )
                )
              )
            )
          )
          (2): ModuleList(
            (0): SwinBlock(
              (attention_block): Residual(
                (fn): PreNorm(
                  (norm): LayerNorm((512,), eps=1e-05, elementwise_affine=True)
                  (fn): WindowAttention(
                    (to_qkv): Linear(in_features=512, out_features=1536, bias=False)
                    (to_out): Linear(in_features=512, out_features=512, bias=True)
                  )
                )
              )
              (mlp_block): Residual(
                (fn): PreNorm(
                  (norm): LayerNorm((512,), eps=1e-05, elementwise_affine=True)
                  (fn): FeedForward(
                    (net): Sequential(
                      (0): Linear(in_features=512, out_features=2048, bias=True)
                      (1): GELU()
                      (2): Linear(in_features=2048, out_features=512, bias=True)
                    )
                  )
                )
              )
            )
            (1): SwinBlock(
              (attention_block): Residual(
                (fn): PreNorm(
                  (norm): LayerNorm((512,), eps=1e-05, elementwise_affine=True)
                  (fn): WindowAttention(
                    (cyclic_shift): CyclicShift()
                    (cyclic_back_shift): CyclicShift()
                    (to_qkv): Linear(in_features=512, out_features=1536, bias=False)
                    (to_out): Linear(in_features=512, out_features=512, bias=True)
                  )
                )
              )
              (mlp_block): Residual(
                (fn): PreNorm(
                  (norm): LayerNorm((512,), eps=1e-05, elementwise_affine=True)
                  (fn): FeedForward(
                    (net): Sequential(
                      (0): Linear(in_features=512, out_features=2048, bias=True)
                      (1): GELU()
                      (2): Linear(in_features=2048, out_features=512, bias=True)
                    )
                  )
                )
              )
            )
          )
          (3): ModuleList(
            (0): SwinBlock(
              (attention_block): Residual(
                (fn): PreNorm(
                  (norm): LayerNorm((512,), eps=1e-05, elementwise_affine=True)
                  (fn): WindowAttention(
                    (to_qkv): Linear(in_features=512, out_features=1536, bias=False)
                    (to_out): Linear(in_features=512, out_features=512, bias=True)
                  )
                )
              )
              (mlp_block): Residual(
                (fn): PreNorm(
                  (norm): LayerNorm((512,), eps=1e-05, elementwise_affine=True)
                  (fn): FeedForward(
                    (net): Sequential(
                      (0): Linear(in_features=512, out_features=2048, bias=True)
                      (1): GELU()
                      (2): Linear(in_features=2048, out_features=512, bias=True)
                    )
                  )
                )
              )
            )
            (1): SwinBlock(
              (attention_block): Residual(
                (fn): PreNorm(
                  (norm): LayerNorm((512,), eps=1e-05, elementwise_affine=True)
…
          (conv): Sequential(
            (0): Conv2d(512, 1024, kernel_size=(3, 3), stride=(1, 1), padding=(1, 1), bias=False)
            (1): BatchNorm2d(1024, eps=1e-05, momentum=0.1, affine=True, track_running_stats=True)
            (2): LeakyReLU(negative_slope=0.01)
          )
        )
        (2): Conv(
          (conv): Sequential(
            (0): Conv2d(1024, 512, kernel_size=(1, 1), stride=(1, 1), bias=False)
            (1): BatchNorm2d(512, eps=1e-05, momentum=0.1, affine=True, track_running_stats=True)
            (2): LeakyReLU(negative_slope=0.01)
          )
        )
        (3): Conv(
          (conv): Sequential(
            (0): Conv2d(512, 1024, kernel_size=(3, 3), stride=(1, 1), padding=(1, 1), bias=False)
            (1): BatchNorm2d(1024, eps=1e-05, momentum=0.1, affine=True, track_running_stats=True)
            (2): LeakyReLU(negative_slope=0.01)
          )
        )
        (4): Conv(
          (conv): Sequential(
            (0): Conv2d(1024, 512, kernel_size=(1, 1), stride=(1, 1), bias=False)
            (1): BatchNorm2d(512, eps=1e-05, momentum=0.1, affine=True, track_running_stats=True)
            (2): LeakyReLU(negative_slope=0.01)
          )
        )
      )
    )
    (predict_net): PredictNet(
      (predict_conv): ModuleList(
        (0): Sequential(
          (0): Conv(
            (conv): Sequential(
              (0): Conv2d(128, 256, kernel_size=(3, 3), stride=(1, 1), padding=(1, 1), bias=False)
              (1): BatchNorm2d(256, eps=1e-05, momentum=0.1, affine=True, track_running_stats=True)
              (2): LeakyReLU(negative_slope=0.01)
            )
          )
          (1): Conv2d(256, 75, kernel_size=(1, 1), stride=(1, 1))
        )
        (1): Sequential(
          (0): Conv(
            (conv): Sequential(
              (0): Conv2d(256, 512, kernel_size=(3, 3), stride=(1, 1), padding=(1, 1), bias=False)
              (1): BatchNorm2d(512, eps=1e-05, momentum=0.1, affine=True, track_running_stats=True)
              (2): LeakyReLU(negative_slope=0.01)
            )
          )
          (1): Conv2d(512, 75, kernel_size=(1, 1), stride=(1, 1))
        )
        (2): Sequential(
          (0): Conv(
            (conv): Sequential(
              (0): Conv2d(512, 1024, kernel_size=(3, 3), stride=(1, 1), padding=(1, 1), bias=False)
              (1): BatchNorm2d(1024, eps=1e-05, momentum=0.1, affine=True, track_running_stats=True)
              (2): LeakyReLU(negative_slope=0.01)
            )
          )
          (1): Conv2d(1024, 75, kernel_size=(1, 1), stride=(1, 1))
        )
      )
    )
  )
  (_Build_Model__head_s): Yolo_head()
  (_Build_Model__head_m): Yolo_head()
  (_Build_Model__head_l): Yolo_head()
) 
[2021-07-05 11:27:57,997]-[train.py line:154]:Train datasets number is : 16551 
[2021-07-05 11:27:57,997]-[train.py line:162]:        =======  start  training   ======      
[2021-07-05 11:27:57,998]-[train.py line:168]:===Epoch:[0/120]=== 
[2021-07-05 16:11:07,331]-[train.py line:149]:Training start,img size is: 608,batchsize is: 1,work number is 4 
[2021-07-05 16:11:07,331]-[train.py line:152]:Build_Model(
  (_Build_Model__yolov4): YOLOv4(
    (backbone): CSPDarknet53(
      (stem_conv): Convolutional(
        (_Convolutional__conv): Conv2d(3, 32, kernel_size=(3, 3), stride=(1, 1), padding=(1, 1), bias=False)
        (_Convolutional__norm): BatchNorm2d(32, eps=1e-05, momentum=0.1, affine=True, track_running_stats=True)
        (_Convolutional__activate): Mish()
      )
      (stages): ModuleList(
        (0): CSPFirstStage(
          (downsample_conv): Convolutional(
            (_Convolutional__conv): Conv2d(32, 64, kernel_size=(3, 3), stride=(2, 2), padding=(1, 1), bias=False)
            (_Convolutional__norm): BatchNorm2d(64, eps=1e-05, momentum=0.1, affine=True, track_running_stats=True)
            (_Convolutional__activate): Mish()
          )
          (split_conv0): Convolutional(
            (_Convolutional__conv): Conv2d(64, 64, kernel_size=(1, 1), stride=(1, 1), bias=False)
            (_Convolutional__norm): BatchNorm2d(64, eps=1e-05, momentum=0.1, affine=True, track_running_stats=True)
            (_Convolutional__activate): Mish()
          )
          (split_conv1): Convolutional(
            (_Convolutional__conv): Conv2d(64, 64, kernel_size=(1, 1), stride=(1, 1), bias=False)
            (_Convolutional__norm): BatchNorm2d(64, eps=1e-05, momentum=0.1, affine=True, track_running_stats=True)
            (_Convolutional__activate): Mish()
          )
          (blocks_conv): Sequential(
            (0): CSPBlock(
              (block): Sequential(
                (0): Convolutional(
                  (_Convolutional__conv): Conv2d(64, 32, kernel_size=(1, 1), stride=(1, 1), bias=False)
                  (_Convolutional__norm): BatchNorm2d(32, eps=1e-05, momentum=0.1, affine=True, track_running_stats=True)
                  (_Convolutional__activate): Mish()
                )
                (1): Convolutional(
                  (_Convolutional__conv): Conv2d(32, 64, kernel_size=(3, 3), stride=(1, 1), padding=(1, 1), bias=False)
                  (_Convolutional__norm): BatchNorm2d(64, eps=1e-05, momentum=0.1, affine=True, track_running_stats=True)
                  (_Convolutional__activate): Mish()
                )
              )
              (activation): Identity()
              (attention_module): ShuffleAttention(
                (avg_pool): AdaptiveAvgPool2d(output_size=1)
                (gn): GroupNorm(4, 4, eps=1e-05, affine=True)
                (sigmoid): Sigmoid()
              )
            )
            (1): Convolutional(
              (_Convolutional__conv): Conv2d(64, 64, kernel_size=(1, 1), stride=(1, 1), bias=False)
              (_Convolutional__norm): BatchNorm2d(64, eps=1e-05, momentum=0.1, affine=True, track_running_stats=True)
              (_Convolutional__activate): Mish()
            )
          )
          (concat_conv): Convolutional(
            (_Convolutional__conv): Conv2d(128, 64, kernel_size=(1, 1), stride=(1, 1), bias=False)
            (_Convolutional__norm): BatchNorm2d(64, eps=1e-05, momentum=0.1, affine=True, track_running_stats=True)
            (_Convolutional__activate): Mish()
          )
        )
        (1): CSPStage(
          (downsample_conv): Convolutional(
            (_Convolutional__conv): Conv2d(64, 128, kernel_size=(3, 3), stride=(2, 2), padding=(1, 1), bias=False)
            (_Convolutional__norm): BatchNorm2d(128, eps=1e-05, momentum=0.1, affine=True, track_running_stats=True)
            (_Convolutional__activate): Mish()
          )
          (split_conv0): Convolutional(
            (_Convolutional__conv): Conv2d(128, 64, kernel_size=(1, 1), stride=(1, 1), bias=False)
            (_Convolutional__norm): BatchNorm2d(64, eps=1e-05, momentum=0.1, affine=True, track_running_stats=True)
            (_Convolutional__activate): Mish()
          )
          (split_conv1): Convolutional(
            (_Convolutional__conv): Conv2d(128, 64, kernel_size=(1, 1), stride=(1, 1), bias=False)
            (_Convolutional__norm): BatchNorm2d(64, eps=1e-05, momentum=0.1, affine=True, track_running_stats=True)
            (_Convolutional__activate): Mish()
          )
          (blocks_conv): Sequential(
            (0): CSPBlock(
              (block): Sequential(
                (0): Convolutional(
                  (_Convolutional__conv): Conv2d(64, 64, kernel_size=(1, 1), stride=(1, 1), bias=False)
                  (_Convolutional__norm): BatchNorm2d(64, eps=1e-05, momentum=0.1, affine=True, track_running_stats=True)
                  (_Convolutional__activate): Mish()
                )
                (1): Convolutional(
                  (_Convolutional__conv): Conv2d(64, 64, kernel_size=(3, 3), stride=(1, 1), padding=(1, 1), bias=False)
                  (_Convolutional__norm): BatchNorm2d(64, eps=1e-05, momentum=0.1, affine=True, track_running_stats=True)
                  (_Convolutional__activate): Mish()
                )
              )
              (activation): Identity()
              (attention_module): ShuffleAttention(
                (avg_pool): AdaptiveAvgPool2d(output_size=1)
                (gn): GroupNorm(4, 4, eps=1e-05, affine=True)
                (sigmoid): Sigmoid()
              )
            )
            (1): CSPBlock(
              (block): Sequential(
                (0): Convolutional(
                  (_Convolutional__conv): Conv2d(64, 64, kernel_size=(1, 1), stride=(1, 1), bias=False)
                  (_Convolutional__norm): BatchNorm2d(64, eps=1e-05, momentum=0.1, affine=True, track_running_stats=True)
                  (_Convolutional__activate): Mish()
                )
                (1): Convolutional(
                  (_Convolutional__conv): Conv2d(64, 64, kernel_size=(3, 3), stride=(1, 1), padding=(1, 1), bias=False)
                  (_Convolutional__norm): BatchNorm2d(64, eps=1e-05, momentum=0.1, affine=True, track_running_stats=True)
                  (_Convolutional__activate): Mish()
                )
              )
              (activation): Identity()
              (attention_module): ShuffleAttention(
                (avg_pool): AdaptiveAvgPool2d(output_size=1)
                (gn): GroupNorm(4, 4, eps=1e-05, affine=True)
                (sigmoid): Sigmoid()
              )
            )
            (2): Convolutional(
              (_Convolutional__conv): Conv2d(64, 64, kernel_size=(1, 1), stride=(1, 1), bias=False)
              (_Convolutional__norm): BatchNorm2d(64, eps=1e-05, momentum=0.1, affine=True, track_running_stats=True)
              (_Convolutional__activate): Mish()
            )
          )
          (concat_conv): Convolutional(
            (_Convolutional__conv): Conv2d(128, 128, kernel_size=(1, 1), stride=(1, 1), bias=False)
            (_Convolutional__norm): BatchNorm2d(128, eps=1e-05, momentum=0.1, affine=True, track_running_stats=True)
            (_Convolutional__activate): Mish()
          )
        )
        (2): CSPStage(
          (downsample_conv): Convolutional(
            (_Convolutional__conv): Conv2d(128, 256, kernel_size=(3, 3), stride=(2, 2), padding=(1, 1), bias=False)
            (_Convolutional__norm): BatchNorm2d(256, eps=1e-05, momentum=0.1, affine=True, track_running_stats=True)
            (_Convolutional__activate): Mish()
          )
          (split_conv0): Convolutional(
            (_Convolutional__conv): Conv2d(256, 128, kernel_size=(1, 1), stride=(1, 1), bias=False)
            (_Convolutional__norm): BatchNorm2d(128, eps=1e-05, momentum=0.1, affine=True, track_running_stats=True)
            (_Convolutional__activate): Mish()
          )
          (split_conv1): Convolutional(
            (_Convolutional__conv): Conv2d(256, 128, kernel_size=(1, 1), stride=(1, 1), bias=False)
            (_Convolutional__norm): BatchNorm2d(128, eps=1e-05, momentum=0.1, affine=True, track_running_stats=True)
            (_Convolutional__activate): Mish()
          )
          (blocks_conv): Sequential(
            (0): CSPBlock(
              (block): Sequential(
                (0): Convolutional(
                  (_Convolutional__conv): Conv2d(128, 128, kernel_size=(1, 1), stride=(1, 1), bias=False)
                  (_Convolutional__norm): BatchNorm2d(128, eps=1e-05, momentum=0.1, affine=True, track_running_stats=True)
                  (_Convolutional__activate): Mish()
                )
                (1): Convolutional(
                  (_Convolutional__conv): Conv2d(128, 128, kernel_size=(3, 3), stride=(1, 1), padding=(1, 1), bias=False)
                  (_Convolutional__norm): BatchNorm2d(128, eps=1e-05, momentum=0.1, affine=True, track_running_stats=True)
                  (_Convolutional__activate): Mish()
                )
              )
              (activation): Identity()
              (attention_module): ShuffleAttention(
                (avg_pool): AdaptiveAvgPool2d(output_size=1)
                (gn): GroupNorm(8, 8, eps=1e-05, affine=True)
                (sigmoid): Sigmoid()
              )
            )
            (1): CSPBlock(
              (block): Sequential(
                (0): Convolutional(
                  (_Convolutional__conv): Conv2d(128, 128, kernel_size=(1, 1), stride=(1, 1), bias=False)
                  (_Convolutional__norm): BatchNorm2d(128, eps=1e-05, momentum=0.1, affine=True, track_running_stats=True)
                  (_Convolutional__activate): Mish()
                )
                (1): Convolutional(
                  (_Convolutional__conv): Conv2d(128, 128, kernel_size=(3, 3), stride=(1, 1), padding=(1, 1), bias=False)
                  (_Convolutional__norm): BatchNorm2d(128, eps=1e-05, momentum=0.1, affine=True, track_running_stats=True)
                  (_Convolutional__activate): Mish()
                )
              )
              (activation): Identity()
              (attention_module): ShuffleAttention(
                (avg_pool): AdaptiveAvgPool2d(output_size=1)
                (gn): GroupNorm(8, 8, eps=1e-05, affine=True)
                (sigmoid): Sigmoid()
              )
            )
            (2): CSPBlock(
              (block): Sequential(
                (0): Convolutional(
                  (_Convolutional__conv): Conv2d(128, 128, kernel_size=(1, 1), stride=(1, 1), bias=False)
                  (_Convolutional__norm): BatchNorm2d(128, eps=1e-05, momentum=0.1, affine=True, track_running_stats=True)
                  (_Convolutional__activate): Mish()
                )
                (1): Convolutional(
                  (_Convolutional__conv): Conv2d(128, 128, kernel_size=(3, 3), stride=(1, 1), padding=(1, 1), bias=False)
                  (_Convolutional__norm): BatchNorm2d(128, eps=1e-05, momentum=0.1, affine=True, track_running_stats=True)
                  (_Convolutional__activate): Mish()
                )
              )
              (activation): Identity()
              (attention_module): ShuffleAttention(
                (avg_pool): AdaptiveAvgPool2d(output_size=1)
                (gn): GroupNorm(8, 8, eps=1e-05, affine=True)
                (sigmoid): Sigmoid()
              )
            )
            (3): CSPBlock(
              (block): Sequential(
                (0): Convolutional(
                  (_Convolutional__conv): Conv2d(128, 128, kernel_size=(1, 1), stride=(1, 1), bias=False)
                  (_Convolutional__norm): BatchNorm2d(128, eps=1e-05, momentum=0.1, affine=True, track_running_stats=True)
                  (_Convolutional__activate): Mish()
                )
                (1): Convolutional(
                  (_Convolutional__conv): Conv2d(128, 128, kernel_size=(3, 3), stride=(1, 1), padding=(1, 1), bias=False)
                  (_Convolutional__norm): BatchNorm2d(128, eps=1e-05, momentum=0.1, affine=True, track_running_stats=True)
                  (_Convolutional__activate): Mish()
                )
              )
              (activation): Identity()
              (attention_module): ShuffleAttention(
                (avg_pool): AdaptiveAvgPool2d(output_size=1)
                (gn): GroupNorm(8, 8, eps=1e-05, affine=True)
                (sigmoid): Sigmoid()
              )
            )
            (4): CSPBlock(
              (block): Sequential(
                (0): Convolutional(
                  (_Convolutional__conv): Conv2d(128, 128, kernel_size=(1, 1), stride=(1, 1), bias=False)
                  (_Convolutional__norm): BatchNorm2d(128, eps=1e-05, momentum=0.1, affine=True, track_running_stats=True)
                  (_Convolutional__activate): Mish()
                )
                (1): Convolutional(
                  (_Convolutional__conv): Conv2d(128, 128, kernel_size=(3, 3), stride=(1, 1), padding=(1, 1), bias=False)
                  (_Convolutional__norm): BatchNorm2d(128, eps=1e-05, momentum=0.1, affine=True, track_running_stats=True)
                  (_Convolutional__activate): Mish()
                )
              )
              (activation): Identity()
              (attention_module): ShuffleAttention(
                (avg_pool): AdaptiveAvgPool2d(output_size=1)
                (gn): GroupNorm(8, 8, eps=1e-05, affine=True)
                (sigmoid): Sigmoid()
              )
            )
            (5): CSPBlock(
              (block): Sequential(
                (0): Convolutional(
                  (_Convolutional__conv): Conv2d(128, 128, kernel_size=(1, 1), stride=(1, 1), bias=False)
                  (_Convolutional__norm): BatchNorm2d(128, eps=1e-05, momentum=0.1, affine=True, track_running_stats=True)
                  (_Convolutional__activate): Mish()
                )
                (1): Convolutional(
                  (_Convolutional__conv): Conv2d(128, 128, kernel_size=(3, 3), stride=(1, 1), padding=(1, 1), bias=False)
                  (_Convolutional__norm): BatchNorm2d(128, eps=1e-05, momentum=0.1, affine=True, track_running_stats=True)
                  (_Convolutional__activate): Mish()
                )
              )
              (activation): Identity()
              (attention_module): ShuffleAttention(
                (avg_pool): AdaptiveAvgPool2d(output_size=1)
                (gn): GroupNorm(8, 8, eps=1e-05, affine=True)
                (sigmoid): Sigmoid()
              )
            )
            (6): CSPBlock(
              (block): Sequential(
                (0): Convolutional(
                  (_Convolutional__conv): Conv2d(128, 128, kernel_size=(1, 1), stride=(1, 1), bias=False)
                  (_Convolutional__norm): BatchNorm2d(128, eps=1e-05, momentum=0.1, affine=True, track_running_stats=True)
                  (_Convolutional__activate): Mish()
                )
                (1): Convolutional(
                  (_Convolutional__conv): Conv2d(128, 128, kernel_size=(3, 3), stride=(1, 1), padding=(1, 1), bias=False)
                  (_Convolutional__norm): BatchNorm2d(128, eps=1e-05, momentum=0.1, affine=True, track_running_stats=True)
                  (_Convolutional__activate): Mish()
                )
              )
              (activation): Identity()
              (attention_module): ShuffleAttention(
                (avg_pool): AdaptiveAvgPool2d(output_size=1)
                (gn): GroupNorm(8, 8, eps=1e-05, affine=True)
                (sigmoid): Sigmoid()
              )
            )
            (7): CSPBlock(
              (block): Sequential(
                (0): Convolutional(
                  (_Convolutional__conv): Conv2d(128, 128, kernel_size=(1, 1), stride=(1, 1), bias=False)
                  (_Convolutional__norm): BatchNorm2d(128, eps=1e-05, momentum=0.1, affine=True, track_running_stats=True)
                  (_Convolutional__activate): Mish()
                )
                (1): Convolutional(
                  (_Convolutional__conv): Conv2d(128, 128, kernel_size=(3, 3), stride=(1, 1), padding=(1, 1), bias=False)
                  (_Convolutional__norm): BatchNorm2d(128, eps=1e-05, momentum=0.1, affine=True, track_running_stats=True)
                  (_Convolutional__activate): Mish()
                )
              )
              (activation): Identity()
              (attention_module): ShuffleAttention(
                (avg_pool): AdaptiveAvgPool2d(output_size=1)
                (gn): GroupNorm(8, 8, eps=1e-05, affine=True)
                (sigmoid): Sigmoid()
              )
            )
            (8): Convolutional(
              (_Convolutional__conv): Conv2d(128, 128, kernel_size=(1, 1), stride=(1, 1), bias=False)
              (_Convolutional__norm): BatchNorm2d(128, eps=1e-05, momentum=0.1, affine=True, track_running_stats=True)
              (_Convolutional__activate): Mish()
            )
          )
          (concat_conv): Convolutional(
            (_Convolutional__conv): Conv2d(256, 256, kernel_size=(1, 1), stride=(1, 1), bias=False)
            (_Convolutional__norm): BatchNorm2d(256, eps=1e-05, momentum=0.1, affine=True, track_running_stats=True)
            (_Convolutional__activate): Mish()
          )
        )
        (3): CSPStage(
          (downsample_conv): Convolutional(
            (_Convolutional__conv): Conv2d(256, 512, kernel_size=(3, 3), stride=(2, 2), padding=(1, 1), bias=False)
            (_Convolutional__norm): BatchNorm2d(512, eps=1e-05, momentum=0.1, affine=True, track_running_stats=True)
            (_Convolutional__activate): Mish()
          )
          (split_conv0): Convolutional(
            (_Convolutional__conv): Conv2d(512, 256, kernel_size=(1, 1), stride=(1, 1), bias=False)
            (_Convolutional__norm): BatchNorm2d(256, eps=1e-05, momentum=0.1, affine=True, track_running_stats=True)
            (_Convolutional__activate): Mish()
          )
          (split_conv1): Convolutional(
            (_Convolutional__conv): Conv2d(512, 256, kernel_size=(1, 1), stride=(1, 1), bias=False)
            (_Convolutional__norm): BatchNorm2d(256, eps=1e-05, momentum=0.1, affine=True, track_running_stats=True)
            (_Convolutional__activate): Mish()
          )
          (blocks_conv): Sequential(
            (0): CSPBlock(
              (block): Sequential(
                (0): Convolutional(
                  (_Convolutional__conv): Conv2d(256, 256, kernel_size=(1, 1), stride=(1, 1), bias=False)
                  (_Convolutional__norm): BatchNorm2d(256, eps=1e-05, momentum=0.1, affine=True, track_running_stats=True)
                  (_Convolutional__activate): Mish()
                )
                (1): Convolutional(
                  (_Convolutional__conv): Conv2d(256, 256, kernel_size=(3, 3), stride=(1, 1), padding=(1, 1), bias=False)
                  (_Convolutional__norm): BatchNorm2d(256, eps=1e-05, momentum=0.1, affine=True, track_running_stats=True)
                  (_Convolutional__activate): Mish()
                )
              )
              (activation): Identity()
              (attention_module): ShuffleAttention(
                (avg_pool): AdaptiveAvgPool2d(output_size=1)
                (gn): GroupNorm(16, 16, eps=1e-05, affine=True)
                (sigmoid): Sigmoid()
              )
            )
            (1): CSPBlock(
              (block): Sequential(
                (0): Convolutional(
                  (_Convolutional__conv): Conv2d(256, 256, kernel_size=(1, 1), stride=(1, 1), bias=False)
                  (_Convolutional__norm): BatchNorm2d(256, eps=1e-05, momentum=0.1, affine=True, track_running_stats=True)
                  (_Convolutional__activate): Mish()
                )
                (1): Convolutional(
                  (_Convolutional__conv): Conv2d(256, 256, kernel_size=(3, 3), stride=(1, 1), padding=(1, 1), bias=False)
                  (_Convolutional__norm): BatchNorm2d(256, eps=1e-05, momentum=0.1, affine=True, track_running_stats=True)
                  (_Convolutional__activate): Mish()
                )
              )
              (activation): Identity()
              (attention_module): ShuffleAttention(
                (avg_pool): AdaptiveAvgPool2d(output_size=1)
                (gn): GroupNorm(16, 16, eps=1e-05, affine=True)
                (sigmoid): Sigmoid()
              )
            )
            (2): CSPBlock(
              (block): Sequential(
                (0): Convolutional(
                  (_Convolutional__conv): Conv2d(256, 256, kernel_size=(1, 1), stride=(1, 1), bias=False)
                  (_Convolutional__norm): BatchNorm2d(256, eps=1e-05, momentum=0.1, affine=True, track_running_stats=True)
                  (_Convolutional__activate): Mish()
                )
                (1): Convolutional(
                  (_Convolutional__conv): Conv2d(256, 256, kernel_size=(3, 3), stride=(1, 1), padding=(1, 1), bias=False)
                  (_Convolutional__norm): BatchNorm2d(256, eps=1e-05, momentum=0.1, affine=True, track_running_stats=True)
                  (_Convolutional__activate): Mish()
                )
              )
              (activation): Identity()
              (attention_module): ShuffleAttention(
                (avg_pool): AdaptiveAvgPool2d(output_size=1)
                (gn): GroupNorm(16, 16, eps=1e-05, affine=True)
                (sigmoid): Sigmoid()
              )
            )
            (3): CSPBlock(
              (block): Sequential(
                (0): Convolutional(
                  (_Convolutional__conv): Conv2d(256, 256, kernel_size=(1, 1), stride=(1, 1), bias=False)
                  (_Convolutional__norm): BatchNorm2d(256, eps=1e-05, momentum=0.1, affine=True, track_running_stats=True)
                  (_Convolutional__activate): Mish()
                )
                (1): Convolutional(
                  (_Convolutional__conv): Conv2d(256, 256, kernel_size=(3, 3), stride=(1, 1), padding=(1, 1), bias=False)
                  (_Convolutional__norm): BatchNorm2d(256, eps=1e-05, momentum=0.1, affine=True, track_running_stats=True)
                  (_Convolutional__activate): Mish()
                )
              )
              (activation): Identity()
              (attention_module): ShuffleAttention(
                (avg_pool): AdaptiveAvgPool2d(output_size=1)
                (gn): GroupNorm(16, 16, eps=1e-05, affine=True)
                (sigmoid): Sigmoid()
              )
            )
            (4): CSPBlock(
              (block): Sequential(
                (0): Convolutional(
                  (_Convolutional__conv): Conv2d(256, 256, kernel_size=(1, 1), stride=(1, 1), bias=False)
                  (_Convolutional__norm): BatchNorm2d(256, eps=1e-05, momentum=0.1, affine=True, track_running_stats=True)
                  (_Convolutional__activate): Mish()
                )
                (1): Convolutional(
                  (_Convolutional__conv): Conv2d(256, 256, kernel_size=(3, 3), stride=(1, 1), padding=(1, 1), bias=False)
                  (_Convolutional__norm): BatchNorm2d(256, eps=1e-05, momentum=0.1, affine=True, track_running_stats=True)
                  (_Convolutional__activate): Mish()
                )
              )
              (activation): Identity()
              (attention_module): ShuffleAttention(
                (avg_pool): AdaptiveAvgPool2d(output_size=1)
                (gn): GroupNorm(16, 16, eps=1e-05, affine=True)
                (sigmoid): Sigmoid()
              )
            )
            (5): CSPBlock(
              (block): Sequential(
                (0): Convolutional(
                  (_Convolutional__conv): Conv2d(256, 256, kernel_size=(1, 1), stride=(1, 1), bias=False)
                  (_Convolutional__norm): BatchNorm2d(256, eps=1e-05, momentum=0.1, affine=True, track_running_stats=True)
                  (_Convolutional__activate): Mish()
                )
                (1): Convolutional(
                  (_Convolutional__conv): Conv2d(256, 256, kernel_size=(3, 3), stride=(1, 1), padding=(1, 1), bias=False)
                  (_Convolutional__norm): BatchNorm2d(256, eps=1e-05, momentum=0.1, affine=True, track_running_stats=True)
                  (_Convolutional__activate): Mish()
                )
              )
              (activation): Identity()
              (attention_module): ShuffleAttention(
                (avg_pool): AdaptiveAvgPool2d(output_size=1)
                (gn): GroupNorm(16, 16, eps=1e-05, affine=True)
                (sigmoid): Sigmoid()
              )
            )
            (6): CSPBlock(
              (block): Sequential(
                (0): Convolutional(
                  (_Convolutional__conv): Conv2d(256, 256, kernel_size=(1, 1), stride=(1, 1), bias=False)
                  (_Convolutional__norm): BatchNorm2d(256, eps=1e-05, momentum=0.1, affine=True, track_running_stats=True)
                  (_Convolutional__activate): Mish()
                )
                (1): Convolutional(
                  (_Convolutional__conv): Conv2d(256, 256, kernel_size=(3, 3), stride=(1, 1), padding=(1, 1), bias=False)
                  (_Convolutional__norm): BatchNorm2d(256, eps=1e-05, momentum=0.1, affine=True, track_running_stats=True)
                  (_Convolutional__activate): Mish()
                )
              )
              (activation): Identity()
              (attention_module): ShuffleAttention(
                (avg_pool): AdaptiveAvgPool2d(output_size=1)
                (gn): GroupNorm(16, 16, eps=1e-05, affine=True)
                (sigmoid): Sigmoid()
              )
            )
            (7): CSPBlock(
              (block): Sequential(
                (0): Convolutional(
                  (_Convolutional__conv): Conv2d(256, 256, kernel_size=(1, 1), stride=(1, 1), bias=False)
                  (_Convolutional__norm): BatchNorm2d(256, eps=1e-05, momentum=0.1, affine=True, track_running_stats=True)
                  (_Convolutional__activate): Mish()
                )
                (1): Convolutional(
                  (_Convolutional__conv): Conv2d(256, 256, kernel_size=(3, 3), stride=(1, 1), padding=(1, 1), bias=False)
                  (_Convolutional__norm): BatchNorm2d(256, eps=1e-05, momentum=0.1, affine=True, track_running_stats=True)
                  (_Convolutional__activate): Mish()
                )
              )
              (activation): Identity()
              (attention_module): ShuffleAttention(
                (avg_pool): AdaptiveAvgPool2d(output_size=1)
                (gn): GroupNorm(16, 16, eps=1e-05, affine=True)
                (sigmoid): Sigmoid()
              )
            )
            (8): Convolutional(
              (_Convolutional__conv): Conv2d(256, 256, kernel_size=(1, 1), stride=(1, 1), bias=False)
              (_Convolutional__norm): BatchNorm2d(256, eps=1e-05, momentum=0.1, affine=True, track_running_stats=True)
              (_Convolutional__activate): Mish()
            )
          )
          (concat_conv): Convolutional(
            (_Convolutional__conv): Conv2d(512, 512, kernel_size=(1, 1), stride=(1, 1), bias=False)
            (_Convolutional__norm): BatchNorm2d(512, eps=1e-05, momentum=0.1, affine=True, track_running_stats=True)
            (_Convolutional__activate): Mish()
          )
        )
        (4): CSPStage(
          (downsample_conv): Convolutional(
            (_Convolutional__conv): Conv2d(512, 1024, kernel_size=(3, 3), stride=(2, 2), padding=(1, 1), bias=False)
            (_Convolutional__norm): BatchNorm2d(1024, eps=1e-05, momentum=0.1, affine=True, track_running_stats=True)
            (_Convolutional__activate): Mish()
          )
          (split_conv0): Convolutional(
            (_Convolutional__conv): Conv2d(1024, 512, kernel_size=(1, 1), stride=(1, 1), bias=False)
            (_Convolutional__norm): BatchNorm2d(512, eps=1e-05, momentum=0.1, affine=True, track_running_stats=True)
            (_Convolutional__activate): Mish()
          )
          (split_conv1): Convolutional(
            (_Convolutional__conv): Conv2d(1024, 512, kernel_size=(1, 1), stride=(1, 1), bias=False)
            (_Convolutional__norm): BatchNorm2d(512, eps=1e-05, momentum=0.1, affine=True, track_running_stats=True)
            (_Convolutional__activate): Mish()
          )
          (blocks_conv): Sequential(
            (0): CSPBlock(
              (block): Sequential(
                (0): Convolutional(
                  (_Convolutional__conv): Conv2d(512, 512, kernel_size=(1, 1), stride=(1, 1), bias=False)
                  (_Convolutional__norm): BatchNorm2d(512, eps=1e-05, momentum=0.1, affine=True, track_running_stats=True)
                  (_Convolutional__activate): Mish()
                )
                (1): Convolutional(
                  (_Convolutional__conv): Conv2d(512, 512, kernel_size=(3, 3), stride=(1, 1), padding=(1, 1), bias=False)
                  (_Convolutional__norm): BatchNorm2d(512, eps=1e-05, momentum=0.1, affine=True, track_running_stats=True)
                  (_Convolutional__activate): Mish()
                )
              )
              (activation): Identity()
              (attention_module): ShuffleAttention(
                (avg_pool): AdaptiveAvgPool2d(output_size=1)
                (gn): GroupNorm(32, 32, eps=1e-05, affine=True)
                (sigmoid): Sigmoid()
              )
            )
            (1): CSPBlock(
              (block): Sequential(
                (0): Convolutional(
                  (_Convolutional__conv): Conv2d(512, 512, kernel_size=(1, 1), stride=(1, 1), bias=False)
                  (_Convolutional__norm): BatchNorm2d(512, eps=1e-05, momentum=0.1, affine=True, track_running_stats=True)
                  (_Convolutional__activate): Mish()
                )
                (1): Convolutional(
                  (_Convolutional__conv): Conv2d(512, 512, kernel_size=(3, 3), stride=(1, 1), padding=(1, 1), bias=False)
                  (_Convolutional__norm): BatchNorm2d(512, eps=1e-05, momentum=0.1, affine=True, track_running_stats=True)
                  (_Convolutional__activate): Mish()
                )
              )
              (activation): Identity()
              (attention_module): ShuffleAttention(
                (avg_pool): AdaptiveAvgPool2d(output_size=1)
                (gn): GroupNorm(32, 32, eps=1e-05, affine=True)
                (sigmoid): Sigmoid()
              )
            )
            (2): CSPBlock(
              (block): Sequential(
                (0): Convolutional(
                  (_Convolutional__conv): Conv2d(512, 512, kernel_size=(1, 1), stride=(1, 1), bias=False)
                  (_Convolutional__norm): BatchNorm2d(512, eps=1e-05, momentum=0.1, affine=True, track_running_stats=True)
                  (_Convolutional__activate): Mish()
                )
                (1): Convolutional(
                  (_Convolutional__conv): Conv2d(512, 512, kernel_size=(3, 3), stride=(1, 1), padding=(1, 1), bias=False)
                  (_Convolutional__norm): BatchNorm2d(512, eps=1e-05, momentum=0.1, affine=True, track_running_stats=True)
                  (_Convolutional__activate): Mish()
                )
              )
              (activation): Identity()
              (attention_module): ShuffleAttention(
                (avg_pool): AdaptiveAvgPool2d(output_size=1)
                (gn): GroupNorm(32, 32, eps=1e-05, affine=True)
                (sigmoid): Sigmoid()
              )
            )
            (3): CSPBlock(
              (block): Sequential(
                (0): Convolutional(
                  (_Convolutional__conv): Conv2d(512, 512, kernel_size=(1, 1), stride=(1, 1), bias=False)
                  (_Convolutional__norm): BatchNorm2d(512, eps=1e-05, momentum=0.1, affine=True, track_running_stats=True)
                  (_Convolutional__activate): Mish()
                )
                (1): Convolutional(
                  (_Convolutional__conv): Conv2d(512, 512, kernel_size=(3, 3), stride=(1, 1), padding=(1, 1), bias=False)
                  (_Convolutional__norm): BatchNorm2d(512, eps=1e-05, momentum=0.1, affine=True, track_running_stats=True)
                  (_Convolutional__activate): Mish()
                )
              )
              (activation): Identity()
              (attention_module): ShuffleAttention(
                (avg_pool): AdaptiveAvgPool2d(output_size=1)
                (gn): GroupNorm(32, 32, eps=1e-05, affine=True)
                (sigmoid): Sigmoid()
              )
            )
            (4): Convolutional(
              (_Convolutional__conv): Conv2d(512, 512, kernel_size=(1, 1), stride=(1, 1), bias=False)
              (_Convolutional__norm): BatchNorm2d(512, eps=1e-05, momentum=0.1, affine=True, track_running_stats=True)
              (_Convolutional__activate): Mish()
            )
          )
          (concat_conv): Convolutional(
            (_Convolutional__conv): Conv2d(1024, 1024, kernel_size=(1, 1), stride=(1, 1), bias=False)
            (_Convolutional__norm): BatchNorm2d(1024, eps=1e-05, momentum=0.1, affine=True, track_running_stats=True)
            (_Convolutional__activate): Mish()
          )
        )
      )
    )
    (spp): SpatialPyramidPooling(
      (head_conv): Sequential(
        (0): Conv(
          (conv): Sequential(
            (0): Conv2d(1024, 512, kernel_size=(1, 1), stride=(1, 1), bias=False)
            (1): BatchNorm2d(512, eps=1e-05, momentum=0.1, affine=True, track_running_stats=True)
            (2): LeakyReLU(negative_slope=0.01)
          )
        )
        (1): Conv(
          (conv): Sequential(
            (0): Conv2d(512, 1024, kernel_size=(3, 3), stride=(1, 1), padding=(1, 1), bias=False)
            (1): BatchNorm2d(1024, eps=1e-05, momentum=0.1, affine=True, track_running_stats=True)
            (2): LeakyReLU(negative_slope=0.01)
          )
        )
        (2): Conv(
          (conv): Sequential(
            (0): Conv2d(1024, 512, kernel_size=(1, 1), stride=(1, 1), bias=False)
            (1): BatchNorm2d(512, eps=1e-05, momentum=0.1, affine=True, track_running_stats=True)
            (2): LeakyReLU(negative_slope=0.01)
          )
        )
      )
      (maxpools): ModuleList(
        (0): MaxPool2d(kernel_size=5, stride=1, padding=2, dilation=1, ceil_mode=False)
        (1): MaxPool2d(kernel_size=9, stride=1, padding=4, dilation=1, ceil_mode=False)
        (2): MaxPool2d(kernel_size=13, stride=1, padding=6, dilation=1, ceil_mode=False)
      )
    )
    (panet): PANet(
      (feature_transform3): Conv(
        (conv): Sequential(
          (0): Conv2d(256, 128, kernel_size=(1, 1), stride=(1, 1), bias=False)
          (1): BatchNorm2d(128, eps=1e-05, momentum=0.1, affine=True, track_running_stats=True)
          (2): LeakyReLU(negative_slope=0.01)
        )
      )
      (feature_transform4): Conv(
        (conv): Sequential(
          (0): Conv2d(512, 256, kernel_size=(1, 1), stride=(1, 1), bias=False)
          (1): BatchNorm2d(256, eps=1e-05, momentum=0.1, affine=True, track_running_stats=True)
          (2): LeakyReLU(negative_slope=0.01)
        )
      )
      (resample5_4): Upsample(
        (upsample): Sequential(
          (0): Conv(
            (conv): Sequential(
              (0): Conv2d(512, 256, kernel_size=(1, 1), stride=(1, 1), bias=False)
              (1): BatchNorm2d(256, eps=1e-05, momentum=0.1, affine=True, track_running_stats=True)
              (2): LeakyReLU(negative_slope=0.01)
            )
          )
          (1): Upsample(scale_factor=2.0, mode=nearest)
        )
      )
      (resample4_3): Upsample(
        (upsample): Sequential(
          (0): Conv(
            (conv): Sequential(
              (0): Conv2d(256, 128, kernel_size=(1, 1), stride=(1, 1), bias=False)
              (1): BatchNorm2d(128, eps=1e-05, momentum=0.1, affine=True, track_running_stats=True)
              (2): LeakyReLU(negative_slope=0.01)
            )
          )
          (1): Upsample(scale_factor=2.0, mode=nearest)
        )
      )
      (resample3_4): Downsample(
        (downsample): Conv(
          (conv): Sequential(
            (0): Conv2d(128, 256, kernel_size=(3, 3), stride=(2, 2), padding=(1, 1), bias=False)
            (1): BatchNorm2d(256, eps=1e-05, momentum=0.1, affine=True, track_running_stats=True)
            (2): LeakyReLU(negative_slope=0.01)
          )
        )
      )
      (resample4_5): Downsample(
        (downsample): Conv(
          (conv): Sequential(
            (0): Conv2d(256, 512, kernel_size=(3, 3), stride=(2, 2), padding=(1, 1), bias=False)
            (1): BatchNorm2d(512, eps=1e-05, momentum=0.1, affine=True, track_running_stats=True)
            (2): LeakyReLU(negative_slope=0.01)
          )
        )
      )
      (transformer_layer): C3TR(
        (cv1): Conv(
          (conv): Conv2d(2048, 256, kernel_size=(1, 1), stride=(1, 1), bias=False)
          (bn): BatchNorm2d(256, eps=1e-05, momentum=0.1, affine=True, track_running_stats=True)
          (act): SiLU()
        )
        (cv2): Conv(
          (conv): Conv2d(2048, 256, kernel_size=(1, 1), stride=(1, 1), bias=False)
          (bn): BatchNorm2d(256, eps=1e-05, momentum=0.1, affine=True, track_running_stats=True)
          (act): SiLU()
        )
        (cv3): Conv(
          (conv): Conv2d(512, 512, kernel_size=(1, 1), stride=(1, 1), bias=False)
          (bn): BatchNorm2d(512, eps=1e-05, momentum=0.1, affine=True, track_running_stats=True)
          (act): SiLU()
        )
        (m): TransformerBlock(
          (linear): Linear(in_features=256, out_features=256, bias=True)
          (tr): Sequential(
            (0): TransformerLayer(
              (q): Linear(in_features=256, out_features=256, bias=False)
              (k): Linear(in_features=256, out_features=256, bias=False)
              (v): Linear(in_features=256, out_features=256, bias=False)
              (ma): MultiheadAttention(
                (out_proj): _LinearWithBias(in_features=256, out_features=256, bias=True)
              )
              (fc1): Linear(in_features=256, out_features=256, bias=False)
              (fc2): Linear(in_features=256, out_features=256, bias=False)
            )
          )
        )
      )
      (downstream_conv5): Sequential(
        (0): Conv(
          (conv): Sequential(
            (0): Conv2d(2048, 512, kernel_size=(1, 1), stride=(1, 1), bias=False)
            (1): BatchNorm2d(512, eps=1e-05, momentum=0.1, affine=True, track_running_stats=True)
            (2): LeakyReLU(negative_slope=0.01)
          )
        )
        (1): Conv(
          (conv): Sequential(
            (0): Conv2d(512, 1024, kernel_size=(3, 3), stride=(1, 1), padding=(1, 1), bias=False)
            (1): BatchNorm2d(1024, eps=1e-05, momentum=0.1, affine=True, track_running_stats=True)
            (2): LeakyReLU(negative_slope=0.01)
          )
        )
        (2): Conv(
          (conv): Sequential(
            (0): Conv2d(1024, 512, kernel_size=(1, 1), stride=(1, 1), bias=False)
            (1): BatchNorm2d(512, eps=1e-05, momentum=0.1, affine=True, track_running_stats=True)
            (2): LeakyReLU(negative_slope=0.01)
          )
        )
      )
      (downstream_conv4): Sequential(
        (0): Conv(
          (conv): Sequential(
            (0): Conv2d(512, 256, kernel_size=(1, 1), stride=(1, 1), bias=False)
            (1): BatchNorm2d(256, eps=1e-05, momentum=0.1, affine=True, track_running_stats=True)
            (2): LeakyReLU(negative_slope=0.01)
          )
        )
        (1): Conv(
          (conv): Sequential(
            (0): Conv2d(256, 512, kernel_size=(3, 3), stride=(1, 1), padding=(1, 1), bias=False)
            (1): BatchNorm2d(512, eps=1e-05, momentum=0.1, affine=True, track_running_stats=True)
            (2): LeakyReLU(negative_slope=0.01)
          )
        )
        (2): Conv(
          (conv): Sequential(
            (0): Conv2d(512, 256, kernel_size=(1, 1), stride=(1, 1), bias=False)
            (1): BatchNorm2d(256, eps=1e-05, momentum=0.1, affine=True, track_running_stats=True)
            (2): LeakyReLU(negative_slope=0.01)
          )
        )
        (3): Conv(
          (conv): Sequential(
            (0): Conv2d(256, 512, kernel_size=(3, 3), stride=(1, 1), padding=(1, 1), bias=False)
            (1): BatchNorm2d(512, eps=1e-05, momentum=0.1, affine=True, track_running_stats=True)
            (2): LeakyReLU(negative_slope=0.01)
          )
        )
        (4): Conv(
          (conv): Sequential(
            (0): Conv2d(512, 256, kernel_size=(1, 1), stride=(1, 1), bias=False)
            (1): BatchNorm2d(256, eps=1e-05, momentum=0.1, affine=True, track_running_stats=True)
            (2): LeakyReLU(negative_slope=0.01)
          )
        )
      )
      (downstream_conv3): Sequential(
        (0): Conv(
          (conv): Sequential(
            (0): Conv2d(256, 128, kernel_size=(1, 1), stride=(1, 1), bias=False)
            (1): BatchNorm2d(128, eps=1e-05, momentum=0.1, affine=True, track_running_stats=True)
            (2): LeakyReLU(negative_slope=0.01)
          )
        )
        (1): Conv(
          (conv): Sequential(
            (0): Conv2d(128, 256, kernel_size=(3, 3), stride=(1, 1), padding=(1, 1), bias=False)
            (1): BatchNorm2d(256, eps=1e-05, momentum=0.1, affine=True, track_running_stats=True)
            (2): LeakyReLU(negative_slope=0.01)
          )
        )
        (2): Conv(
          (conv): Sequential(
            (0): Conv2d(256, 128, kernel_size=(1, 1), stride=(1, 1), bias=False)
            (1): BatchNorm2d(128, eps=1e-05, momentum=0.1, affine=True, track_running_stats=True)
            (2): LeakyReLU(negative_slope=0.01)
          )
        )
        (3): Conv(
          (conv): Sequential(
            (0): Conv2d(128, 256, kernel_size=(3, 3), stride=(1, 1), padding=(1, 1), bias=False)
            (1): BatchNorm2d(256, eps=1e-05, momentum=0.1, affine=True, track_running_stats=True)
            (2): LeakyReLU(negative_slope=0.01)
          )
        )
        (4): Conv(
          (conv): Sequential(
            (0): Conv2d(256, 128, kernel_size=(1, 1), stride=(1, 1), bias=False)
            (1): BatchNorm2d(128, eps=1e-05, momentum=0.1, affine=True, track_running_stats=True)
            (2): LeakyReLU(negative_slope=0.01)
          )
        )
      )
      (upstream_conv4): Sequential(
        (0): Conv(
          (conv): Sequential(
            (0): Conv2d(512, 256, kernel_size=(1, 1), stride=(1, 1), bias=False)
            (1): BatchNorm2d(256, eps=1e-05, momentum=0.1, affine=True, track_running_stats=True)
            (2): LeakyReLU(negative_slope=0.01)
          )
        )
        (1): Conv(
          (conv): Sequential(
            (0): Conv2d(256, 512, kernel_size=(3, 3), stride=(1, 1), padding=(1, 1), bias=False)
            (1): BatchNorm2d(512, eps=1e-05, momentum=0.1, affine=True, track_running_stats=True)
            (2): LeakyReLU(negative_slope=0.01)
          )
        )
        (2): Conv(
          (conv): Sequential(
            (0): Conv2d(512, 256, kernel_size=(1, 1), stride=(1, 1), bias=False)
            (1): BatchNorm2d(256, eps=1e-05, momentum=0.1, affine=True, track_running_stats=True)
            (2): LeakyReLU(negative_slope=0.01)
          )
        )
        (3): Conv(
          (conv): Sequential(
            (0): Conv2d(256, 512, kernel_size=(3, 3), stride=(1, 1), padding=(1, 1), bias=False)
            (1): BatchNorm2d(512, eps=1e-05, momentum=0.1, affine=True, track_running_stats=True)
            (2): LeakyReLU(negative_slope=0.01)
          )
        )
        (4): Conv(
          (conv): Sequential(
            (0): Conv2d(512, 256, kernel_size=(1, 1), stride=(1, 1), bias=False)
            (1): BatchNorm2d(256, eps=1e-05, momentum=0.1, affine=True, track_running_stats=True)
            (2): LeakyReLU(negative_slope=0.01)
          )
        )
      )
      (upstream_conv5): Sequential(
        (0): Conv(
          (conv): Sequential(
            (0): Conv2d(1024, 512, kernel_size=(1, 1), stride=(1, 1), bias=False)
            (1): BatchNorm2d(512, eps=1e-05, momentum=0.1, affine=True, track_running_stats=True)
            (2): LeakyReLU(negative_slope=0.01)
          )
        )
        (1): Conv(
          (conv): Sequential(
            (0): Conv2d(512, 1024, kernel_size=(3, 3), stride=(1, 1), padding=(1, 1), bias=False)
            (1): BatchNorm2d(1024, eps=1e-05, momentum=0.1, affine=True, track_running_stats=True)
            (2): LeakyReLU(negative_slope=0.01)
          )
        )
        (2): Conv(
          (conv): Sequential(
            (0): Conv2d(1024, 512, kernel_size=(1, 1), stride=(1, 1), bias=False)
            (1): BatchNorm2d(512, eps=1e-05, momentum=0.1, affine=True, track_running_stats=True)
            (2): LeakyReLU(negative_slope=0.01)
          )
        )
        (3): Conv(
          (conv): Sequential(
            (0): Conv2d(512, 1024, kernel_size=(3, 3), stride=(1, 1), padding=(1, 1), bias=False)
            (1): BatchNorm2d(1024, eps=1e-05, momentum=0.1, affine=True, track_running_stats=True)
            (2): LeakyReLU(negative_slope=0.01)
          )
        )
        (4): Conv(
          (conv): Sequential(
            (0): Conv2d(1024, 512, kernel_size=(1, 1), stride=(1, 1), bias=False)
            (1): BatchNorm2d(512, eps=1e-05, momentum=0.1, affine=True, track_running_stats=True)
            (2): LeakyReLU(negative_slope=0.01)
          )
        )
      )
    )
    (predict_net): PredictNet(
      (predict_conv): ModuleList(
        (0): Sequential(
          (0): Conv(
            (conv): Sequential(
              (0): Conv2d(128, 256, kernel_size=(3, 3), stride=(1, 1), padding=(1, 1), bias=False)
              (1): BatchNorm2d(256, eps=1e-05, momentum=0.1, affine=True, track_running_stats=True)
              (2): LeakyReLU(negative_slope=0.01)
            )
          )
          (1): Conv2d(256, 75, kernel_size=(1, 1), stride=(1, 1))
        )
        (1): Sequential(
          (0): Conv(
            (conv): Sequential(
              (0): Conv2d(256, 512, kernel_size=(3, 3), stride=(1, 1), padding=(1, 1), bias=False)
              (1): BatchNorm2d(512, eps=1e-05, momentum=0.1, affine=True, track_running_stats=True)
              (2): LeakyReLU(negative_slope=0.01)
            )
          )
          (1): Conv2d(512, 75, kernel_size=(1, 1), stride=(1, 1))
        )
        (2): Sequential(
          (0): Conv(
            (conv): Sequential(
              (0): Conv2d(512, 1024, kernel_size=(3, 3), stride=(1, 1), padding=(1, 1), bias=False)
              (1): BatchNorm2d(1024, eps=1e-05, momentum=0.1, affine=True, track_running_stats=True)
              (2): LeakyReLU(negative_slope=0.01)
            )
          )
          (1): Conv2d(1024, 75, kernel_size=(1, 1), stride=(1, 1))
        )
      )
    )
  )
  (_Build_Model__head_s): Yolo_head()
  (_Build_Model__head_m): Yolo_head()
  (_Build_Model__head_l): Yolo_head()
) 
[2021-07-05 16:11:07,345]-[train.py line:154]:Train datasets number is : 16551 
[2021-07-05 16:11:07,347]-[train.py line:162]:        =======  start  training   ======      
[2021-07-05 16:11:07,349]-[train.py line:168]:===Epoch:[0/50]=== 
…
